models/hybrid_model_FUBO.pth (torch, 24947 bytes, 7 tensors)

tech_lstm.weight_ih_l0 f4 [128, 8]
00000000: 920f 113e 2ef1 843d 84a8 0a3e bedd 813c
00000010: 27c7 c73d 005c ccbd ea3c 48be 18bc 87bd
00000020: 5632 f03d af2f 923d de72 a8bd 29aa 4f3e
00000030: 8596 e43d 97c2 b7bd 739e 383d 40df e9bd
00000040: 9447 1e3e 772d 17be aa6e da3d 4701 bbbc
00000050: bb23 97bd 21f3 6bbd 1ea2 043e 58ad 37be
00000060: 765d 153d 0722 51be d60d 8c3c 80a4 0fbe
00000070: 96b6 51bd 3287 eabd e3d7 3b3d daa8 29bd
00000080: ff1e 07be 87ed 58bd 83ef c33d a043 ecbc
00000090: b2d0 66bd 9b0d 9e3d 5ba8 553d cc16 ff3d
000000a0: 4a33 913c 0093 8abd b2e5 093b 5327 133d
000000b0: a310 57bd 29ce 463e 73ab 3a3d 4c54 02be
000000c0: 0606 9a3d 2c13 1b3d 2845 0e3e 1918 4c3e
000000d0: b6bb d7bd f081 b73d e7e9 0f3e 6df0 8cbd
000000e0: aec5 0e3d eb9e 1e3d 998d bd3d 6703 6bbd
000000f0: 4fb9 31bd 6a8c 8c3c d60f 973d de60 dabd
00000100: 47e8 7e3e 26a3 03be 7cb3 ba3d ca4c 213e
00000110: 3208 533e 2fd3 6d3e d78d d6bc b20a f23d
00000120: 8910 1a3e e9dd 04be 6a56 b3bd d8b9 2d3e
00000130: cd54 9cbd 3cd6 453e 542d a9bd 3c14 c5bc
00000140: 9867 af3c 0c9c 473d 2599 3fbe 617c f6bc
00000150: 8aa8 afbc 4f2a 10bc b346 57bd 21ff 773c
00000160: 5748 5f3d 14ce c3bc 96bb febd 08e2 2f3d
00000170: 8d20 41be 5f81 a2bd f457 dfbd acb1 753c
00000180: ae94 573d 8d88 b93c d992 4cbd a95b ce3d
00000190: 510b c33d 2102 43bd 531a d03c 7e36 72bd
000001a0: 7aee ccbd c35c 373e c946 11be 296e ba3d
000001b0: 66f5 c43d 3607 33be e488 90bd 06ce 0d3e
000001c0: cf2d 06bd 8b19 32bd de45 51bd efe9 7bbd
000001d0: 20aa 0abe 5583 3ebe 13c0 78bc 388a a63c
000001e0: 7170 043e 0c32 08bc 2393 683d 6f47 ab3d
000001f0: c40c 32be 2f9c adbc fa9f 4dbe 80c5 2ebe
00000200: 44a3 e93d c228 ddbd 6a6c 73be 6674 293e
00000210: 0a97 4c3c 01f7 b4bd cc1d d93d 7800 05be
00000220: ba8e 23be 2311 27be 8139 b53d 1e09 07bd
00000230: 69bc f83c dcd9 ccbc d3ff 9fbd 1c59 813c
00000240: 9e73 753d d634 843e 3298 823e d3e4 55bd
00000250: 44e6 a23d 307c 7c3c 1ce9 c13d 06ae 033e
00000260: 6751 8a3d e248 3c3e 24b7 163e b478 39be
00000270: 526a 333e d0f5 1fbd e2a4 9e3e 66c6 f1bd
00000280: 8ec3 093e 02ce 043c f0ac 2b3d 0417 09be
00000290: 1d25 4039 6b28 9abc c90f 94bd cc1d 173e
000002a0: b840 443e 6ee1 cabd c444 953e 9ead cd3d
000002b0: 8c65 153e 0065 0d3d 1eda 1d3e 26c0 e6bd
000002c0: a77b ba3e d022 14be 1bc6 8ebc 28d3 453d
000002d0: adc3 543d 0c7a 593d 75a4 bbbd 596b abbd
000002e0: a254 3fbe 3bd2 18be 88cd f63d 5a79 03be
000002f0: fb99 183c 428f 14be 40cf 98bd 25ff 31be
00000300: db55 4abd c55d 943d 1ed8 a73d a8c6 8c3d
00000310: 03e7 b9bd be59 f23c e196 303b c939 6d3c
00000320: f757 083e c4b5 793d 8cac 3ebe 6c12 83bd
00000330: c661 9abd 4e69 25be c1ad 933d 8ac0 8f3d
00000340: 9e16 a2bc 1b35 e9bc bec2 973d 9282 e9bd
00000350: 38c5 fc3d 9598 e7bc 81da 153d 9e7e df3d
00000360: ec39 0dbd 757a 53be 8e9f 56bd 618a 933d
00000370: b55f b83d 4c4d 993d e63d 9ebd b537 c4bd
00000380: ef72 823c 4e6d a4bd a165 4d3d 76f1 e83c
00000390: 30fa 06be 03b4 05be 34b3 1639 20f9 ab3c
000003a0: dde0 e63d ce9b 09be 55e0 2d3d b919 a0bd
000003b0: 195f ae3d 1a8e 3b3d 4eb7 15bd 63f8 113c
000003c0: a739 113b 9f9e aabd 18ab 4abe 84cb febd
000003d0: e7b8 d33c 9063 113e e5b0 6c3d 259a f4bd
000003e0: 1693 723d a7c4 303e 9823 6b3e 7de6 e9bd
000003f0: 6cc8 a93e 845c 693e cf6c 7fbd cd3c 393e
0.14166096 0.06491314 0.13540846 0.015852805 0.09754782 -0.09978485 -0.19554487 -0.06627673
0.11728351 0.07138001 -0.08225034 0.20279755 0.11161522 -0.08972662 0.045072984 -0.11419535
0.15456992 -0.14763437 0.10665639 -0.022827758 -0.07379862 -0.057604913 0.12952468 -0.17937219
0.036466084 -0.20423137 0.017096441 -0.14027596 -0.05119952 -0.11451568 0.045860182 -0.041420795
-0.13195418 -0.0529609 0.095671676 -0.02884084 -0.05635137 0.07717439 0.05216251 0.1245552
0.017724652 -0.06766319 0.002104145 0.035926174 -0.0525061 0.19414581 0.045573663 -0.12727469
0.0752068 0.03786008 0.13893569 0.19931068 -0.1053385 0.089603305 0.1405407 -0.06881795
0.03485649 0.038725775 0.09255523 -0.05737629 -0.043389615 0.017156798 0.07376067 -0.10663007
0.24893294 -0.12855205 0.09116265 0.15751949 0.20608595 0.23225091 -0.026190681 0.11818446
0.1504537 -0.12975277 -0.087567165 0.16965425 -0.07633362 0.19320005 -0.08260599 -0.0240575
0.021411702 0.048732802 -0.18710764 -0.030088605 -0.02144267 -0.00879915 -0.05255766 0.015136511
0.054512348 -0.023901977 -0.12438123 0.04294017 -0.18860073 -0.07934832 -0.109054476 0.014995974
0.052632026 0.02264812 -0.049944732 0.100760765 0.09523643 -0.047609452 0.025403177 -0.059134
-0.10006423 0.1790648 -0.14187159 0.09103043 0.096171185 -0.1748322 -0.0705736 0.13848123
-0.03275853 -0.04348139 -0.05109202 -0.061502393 -0.1354146 -0.18604787 -0.015182513 0.02032958
0.12933518 -0.008312713 0.056780946 0.08363234 -0.17387682 -0.021192638 -0.20080557 -0.17067528
0.114080936 -0.107987896 -0.23771825 0.16548309 0.012487182 -0.08836175 0.106013864 -0.1298846
-0.15972415 -0.16315131 0.088488586 -0.03296768 0.030363278 -0.025006227 -0.078124665 0.015789561
0.059924714 0.2582156 0.2550674 -0.052220177 0.07954076 0.015410468 0.0946829 0.12859353
0.067538075 0.18387178 0.147183 -0.18112451 0.17521027 -0.039052784 0.3098517 -0.118054196
0.13453504 0.008105757 0.041912973 -0.13387686 0.00018324373 -0.0188181 -0.07229573 0.1475746
0.19165313 -0.099062786 0.29154027 0.100428805 0.14589518 0.03452015 0.15415236 -0.11267118
0.36422464 -0.14466405 -0.017428448 0.048297077 0.051944423 0.05309491 -0.09162227 -0.08370084
-0.18684629 -0.14923947 0.12050921 -0.1283926 0.009314056 -0.14507774 -0.07461405 -0.17382486
-0.049398284 0.072444476 0.08195518 0.06873828 -0.09077265 0.029583808 0.00269454 0.014479109
0.13314806 0.06096436 -0.18620509 -0.06399998 -0.0753818 -0.16153452 0.07210875 0.07019146
-0.019786175 -0.028467705 0.07410191 -0.114018574 0.12342304 -0.028270999 0.036585335 0.10912822
-0.034479067 -0.20652182 -0.052398257 0.07204128 0.0900263 0.07485446 -0.0772665 -0.09580938
0.015923945 -0.08028661 0.05014575 0.02843545 -0.13181376 -0.1305695 0.00014371873 0.020992815
0.11273358 -0.13438341 0.042450268 -0.07817406 0.08514232 0.045789815 -0.036551766 0.008909318
0.0022159608 -0.08331036 -0.1979183 -0.12441161 0.025845004 0.14198136 0.057785887 -0.11943463
0.059222303 0.17262517 0.22962797 -0.11420915 0.33160722 0.22789198 -0.062359627 0.180896

tech_lstm.weight_hh_l0 f4 [128, 32]
00000000: 566e 15be 1e15 8abc dc94 1bbe 0ec8 a23d
00000010: 8b14 3e3e d75e 643c 3806 383d 7e49 0e3d
00000020: fb3a bf3d 5971 ff3d cbef 04be 247c 663d
00000030: 7274 adbc c14b 5abd fb2e 0f3e 7853 f2bd
00000040: bfab 50be ca3c d2bd 448e 25be f358 7a3e
00000050: fb47 04bc bee8 1f3e 8ecd cdbd 52f3 f83d
00000060: 172a 17be a67c 26be e4cd 023d 9a40 25bd
00000070: 1dba 5cbb 39fe 01be ae64 d2bc 09b3 273d
00000080: 9218 6cbe b70e 89bd 1b6c 25be 223b 35be
00000090: 05a1 d23b 316b c7bc 5ad7 513e c715 273e
000000a0: 1e22 263e fa1b 663e da95 8abd c6db a4bc
000000b0: e35f 17be f8fc 0bbe e081 583d 1eba 53bd
000000c0: ac77 b33d cb76 cebb 1af2 463d 3fb7 fc3d
000000d0: 9080 263e 8674 1bbe bde7 4dbe f3e0 563c
000000e0: 32a3 203d 777a a1bd cf63 42be d597 66be
000000f0: 5f24 0ebe 0745 92bd 1468 683e 1891 3d3d
00000100: 4773 b8bc a68b 3cbe 8448 11be 9904 293a
00000110: a8f8 9fbd 269a 44bd f4f3 363e 5018 c5bd
00000120: a549 ea3d 7fec 50bd f6a9 b03d d5da 873d
00000130: 59bb 8a3d 2a7d c1bd d90d 043e de93 ef3b
00000140: 4511 fabc 37b6 4b3c a0c2 8abc d0ef fcbc
00000150: f543 843d df99 983d 3377 2ebd ee3d de3d
00000160: 028b 57be 0304 dd3c f755 09be d068 d9bc
00000170: 9229 9c3d 1570 453d 1393 86bc 52c8 2e3d
00000180: d2f7 0e3d 0ae4 2dbe fcf4 30be 022f a43d
00000190: 5c51 e83d 9e2b babd 5111 293e b16f 423e
000001a0: 8523 d93d cc13 8d3d be88 0c3b 876f 0fbd
000001b0: c33b 603d 54f0 c73c 3738 dc3d 3d41 8e3d
000001c0: 367a 6dbe a435 f8bd 74c5 d23c 4822 423d
000001d0: e58f 6a3e 7864 abbd 9521 393d d0ef 1dbd
000001e0: a17b 9f3d 28a5 e23c 18b2 e43d 8f27 6b3d
000001f0: 1475 72bb 0b86 f9bd 6585 f33d d9a4 04bd
00000200: 9039 42be 13ef edbd 613f 963d d960 dabd
00000210: 31cd 98bd c843 403e 7055 12be aa92 bc3d
00000220: 1df5 643e 1e64 df3d 3dea 9f3b 23c7 a4bd
00000230: e760 26be 7af3 93bd 4e51 063e f697 2c3d
00000240: 5385 ecbc db5b eb3d b7f9 8b3d 0a12 093e
00000250: b6e0 aabd 2881 d03d f33a 4abe 80d2 eebd
00000260: 1da7 d8bd 30e1 22be 40ef 14be bc70 1abe
00000270: 1ab3 483d 0734 de3d e803 563e f10f dabd
00000280: 5c68 a3bd 2a67 8c3b 52e1 1fbe 93b0 aa3d
00000290: 146d 5c3e f319 87bd 12f7 b4bd baa3 cd3c
000002a0: a2d0 413e b7b3 193e 1abb 15be dbbb e7bd
000002b0: bd7a 0ebe d62f cd3d d688 4bbe 20e7 553c
000002c0: ee8a 5ebe 9bd0 00be b4ff 793b 0f90 8c3e
000002d0: 4ea9 f0bd 8e4a 183d df0a 5cbe d285 adbd
000002e0: 472c 8ebd a7d1 5c3d 8fe1 273e 9336 18be
000002f0: 196b 5bbe 2883 d8bb 7df9 933c 6f46 bcbd
00000300: 1d59 cabd 8e55 26be e31f 3abe 612b 2bbe
00000310: 16f1 94bd fac5 3f3e bbc3 ddbc 4781 f4bd
00000320: 7971 d33d daeb a0bd fe18 023e 15b5 033c
00000330: 43b2 f93d 38d7 b7bc 63ba 07be 2f85 e6bd
00000340: ffce 04be cc4a f63c d086 04bd f22e b03e
00000350: 2cc3 e6bd 7d5d 9a3b 7746 ecbd 4022 123e
00000360: a896 59be eb19 d03d 13ab 9ebd 0ec4 9e3d
00000370: 5b58 cdbc 963b 103d 639a 01be e79d 723d
00000380: ac9b 38be c014 b2bd b0ed 3e3d 37e0 53bb
00000390: 3cfe 423e 111e 61bd 21bd e03c 7795 5dbd
000003a0: e501 bc3d a43e d2bd f265 a93d 817b d43d
000003b0: ca01 b5bc 6636 c3bc 9281 2abe db28 c93d
000003c0: e6aa 51be 6e65 51bd 5a39 853d dae2 2d3e
000003d0: 94ae 733d 074a 1abd 1dfd 0abe cd4e 9dbd
000003e0: a6b0 de3c cdbe fdbd ede4 17be 19b9 203d
000003f0: a530 a13d 8723 bd3d 8a66 8cbd 34be 383d
-0.14592871 -0.016855773 -0.15193504 0.07948314 0.18562524 0.013938627 0.044927806 0.034738056
0.093374215 0.12472791 -0.12982099 0.056270733 -0.02117369 -0.0532949 0.13982765 -0.11832327
-0.20378016 -0.10265501 -0.16167551 0.24447994 -0.008073802 0.15616128 -0.10048972 0.12155785
-0.1476215 -0.16258487 0.031934634 -0.040344812 -0.0033680268 -0.12694634 -0.025682773 0.040942226
-0.23056248 -0.0669226 -0.1615452 -0.17698339 0.0064278864 -0.024343105 0.20492306 0.16316901
0.16223952 0.2247161 -0.06766863 -0.020124327 -0.14782672 -0.13670719 0.052858233 -0.051691167
0.0876306 -0.0063007823 0.04857073 0.12339639 0.1625998 -0.15181169 -0.20107932 0.0131151555
0.039218135 -0.078846864 -0.18983386 -0.22518857 -0.13881062 -0.07142072 0.22695953 0.04628095
-0.022515906 -0.18412647 -0.14187819 0.00064475235 -0.07811099 -0.04799857 0.17866498 -0.09623778
0.11439828 -0.05100679 0.086261675 0.06633536 0.06774015 -0.09447701 0.12895907 0.0073113283
-0.030525813 0.01243358 -0.016938508 -0.03087607 0.06458274 0.074512236 -0.042594146 0.10851656
-0.21049121 0.026979452 -0.13411699 -0.026539236 0.076251164 0.048202593 -0.016427552 0.04267151
0.03490431 -0.16981521 -0.17280954 0.080167785 0.11343643 -0.090903506 0.16510512 0.1898792
0.10602478 0.068885416 0.002144381 -0.03501847 0.054744493 0.02440659 0.1075291 0.06946037
-0.23191151 -0.12119606 0.025728919 0.047395974 0.22906454 -0.08368772 0.045198042 -0.03855878
0.07787252 0.027666643 0.11166781 0.057410773 -0.0036996054 -0.1218377 0.11890677 -0.032383773
-0.18967271 -0.116178654 0.07336307 -0.106630035 -0.07461012 0.18775856 -0.14290404 0.092076614
0.22359128 0.10907768 0.0048802183 -0.08045795 -0.16247903 -0.07224174 0.13116953 0.04213711
-0.028872168 0.114921294 0.06834739 0.13385788 -0.083436415 0.101808846 -0.1974905 -0.116612434
-0.10578749 -0.15906215 -0.14544392 -0.15082067 0.04899893 0.10849767 0.20899928 -0.10647572
-0.07978889 0.004284759 -0.15613297 0.0833446 0.21525985 -0.06596746 -0.088361874 0.025102485
0.18927243 0.15009962 -0.14622155 -0.113151275 -0.13914008 0.100188896 -0.19876418 0.013055593
-0.21732685 -0.12579577 0.0038146796 0.27453658 -0.11751042 0.037180476 -0.21488522 -0.0847279
-0.06942039 0.053910878 0.16394638 -0.14864568 -0.21427573 -0.006607432 0.018063301 -0.09193122
-0.09880278 -0.16243574 -0.18176226 -0.16715766 -0.07272546 0.18727866 -0.02707087 -0.1193872
0.103243776 -0.07857485 0.12704846 0.008038779 0.12192204 -0.022441491 -0.13254695 -0.112558715
-0.12969588 0.030064963 -0.03235513 0.34410816 -0.11267695 0.0047108517 -0.115368776 0.14270878
-0.21248877 0.101611935 -0.077474736 0.07752238 -0.025066545 0.035213076 -0.1265655 0.05923262
-0.18028134 -0.08695364 0.046613395 -0.0032329687 0.19042295 -0.054960314 0.027433934 -0.05409762
0.09180049 -0.10265854 0.08271398 0.10375119 -0.02209558 -0.02382965 -0.1665099 0.09822246
-0.20475349 -0.05112212 0.065050796 0.16981068 0.059492663 -0.037668254 -0.13573118 -0.07681046
0.027183842 -0.12389908 -0.14833422 0.039239023 0.07870606 0.09235292 -0.06855495 0.045103267

tech_lstm.bias_ih_l0 f4 [128]
00000000: 9701 3c3e e3a9 513d 5cf5 b33d f6e0 f0bc
00000010: d6b9 cf3d ae81 54bd 3c25 85bd 7e09 e73d
00000020: 0fda 1d3e d4ef b3bd 642a d53c d9c4 853d
00000030: 79ce 9bbd 2045 c93d 22f9 ad3d 8442 62bd
00000040: 6fda b73c 79d6 1f3e b06d acbd b428 27bc
00000050: 24f2 09bd 4822 1f3e f7c0 7ebd 983c 05bd
00000060: 8084 983d e85d 81bd 8b5b 4d3d 4674 bfbc
00000070: 0c00 efbd 896a 183d 09db 463e b88a edbd
00000080: bcfc 053d 4daa 993c 26a9 643d 5436 1a3e
00000090: 1a35 9e3d feca 663e ae8f 04be 189b a53d
000000a0: 0c18 8fbd a3b6 a33d 8e4f 84bd e293 303d
000000b0: ddad 70bd 5e90 293e cd99 31bd 4ba8 813d
000000c0: 0f09 323e 5c15 673e 4a62 a2bc 5a9a 3dbd
000000d0: 2afe fc3d 64b6 31be e1c6 ea3d e8da 0a3c
000000e0: 4edd 843d 47bc e3bd 3ef6 753d 4d15 cb3c
000000f0: 6776 d23d 92b0 afbc afda eb3d f54a 963d
00000100: ce67 2cbe c2b8 8fbd 29c3 30be 2d01 c0bd
00000110: b6cc 1b3e b8f3 ae3c 1ae2 e23d 60f6 393e
00000120: 469b 8c3d 50e3 0e3e 226c 3abe 49c1 29bd
00000130: cfd2 ba3c b806 cd3d 3027 33bd 01e9 d13d
00000140: 33ac e1bd c012 33be c5ef f6bd 9d29 143e
00000150: 386f 2d3d 4e2e e43b b39d 4abe 0b71 e1bd
00000160: 69d2 15be 2dbc 29be 0d79 123d be20 54be
00000170: 171c 03be 5397 e1bc beff 7fbc 00e6 f23d
00000180: a7bc 9d3d a138 433e 7be4 b13d 5dfe 7a3d
00000190: 8f59 013e c475 5ebd c276 1eba 2ef9 8dbc
000001a0: 6850 d1bd 428d c0bd c7bd adbd a4a6 55bd
000001b0: 870e a1bd 6eec adbd b2b6 28be 20e5 113e
000001c0: c60b 6b3e 9133 413e 8093 3abd e85f c13d
000001d0: 4628 b03d a71e 5cbd 2bb0 ed3d 8f5a 3c3e
000001e0: 75f5 5e3e 2efd cabd 2cb9 073c 4a0b 01bd
000001f0: 82a2 d83d 4094 62bd 092f 89bb 4612 b0bd
0.18359981 0.051187407 0.08787033 -0.029404145 0.10142867 -0.051881485 -0.065012425 0.11281107
0.15415214 -0.08785978 0.02602119 0.06531686 -0.07607741 0.09827638 0.08494784 -0.055239215
0.022443024 0.15609159 -0.08419359 -0.0102025755 -0.03367819 0.15540421 -0.062195744 -0.03252849
0.07447147 -0.06316739 0.05013613 -0.023370873 -0.11669931 0.037210975 0.19419493 -0.11598724
0.03271173 0.018757964 0.055825375 0.15059787 0.07724972 0.22538373 -0.12945434 0.080862224
-0.069870085 0.079938196 -0.06460486 0.043109782 -0.05875956 0.16558978 -0.043359566 0.063309275
0.17386268 0.22566742 -0.019822259 -0.04628978 0.123531654 -0.17354733 0.114637144 0.008475043
0.06487523 -0.111198954 0.060049288 0.02479043 0.1027649 -0.0214465 0.1151632 0.07338516
-0.16836473 -0.07017662 -0.17261948 -0.09375224 0.1521481 0.021356449 0.11078282 0.18160391
0.068655536 0.139539 -0.18205312 -0.041444097 0.0228056 0.10011047 -0.043738544 0.1024952
-0.110191725 -0.17487621 -0.12057451 0.14468999 0.042342395 0.0069635278 -0.1978672 -0.11007889
-0.14631046 -0.1657569 0.035759974 -0.20715615 -0.12803684 -0.027537977 -0.0156249385 0.11860275
0.07701998 0.19064571 0.08686157 0.061277736 0.1263182 -0.05431153 -0.0006044918 -0.017330732
-0.102204144 -0.09401943 -0.08483463 -0.052160874 -0.07864099 -0.08492361 -0.16475943 0.1424756
0.2295371 0.18867327 -0.045550823 0.09442121 0.086014315 -0.05374017 0.11605867 0.1839392
0.21773322 -0.099115714 0.0082838945 -0.031504907 0.10577871 -0.055317163 -0.004186515 -0.085972354

tech_lstm.bias_hh_l0 f4 [128]
00000000: 7d3a 003c 4caf a23d ac22 ef3d 0b8d e3bd
00000010: 0cca 023e 0c7e 38bc 21a5 ecbc 7f25 9fb9
00000020: 5aa2 81bd f788 3c3c 24f3 bf3c bc76 68bc
00000030: a3a6 c5bd d0ed 3ebd a7b9 0dbe 3826 9fbd
00000040: 4b75 94bd 83d5 403e 9318 cdbc 4290 bf3d
00000050: 132e 983d 71ab 24bd 6d5f c63d e09b d8bd
00000060: 91fb 123e f097 e8bd 2f37 9c3d 5923 f8ba
00000070: 31e4 443e 0b37 0cbd 1b39 c9bd ebb5 a1ba
00000080: 3bc5 3f3d ca0c 65bd 4bac 3b3e 86dc 3c3e
00000090: 29a8 16bd 526d 463e c6fd 1a3e bb6d 5d3e
000000a0: 5f4d 40bc 2a9f febd 070e a33c f1fe 193e
000000b0: aa92 c63d f14c db3d 0f04 a03d e9da 95bd
000000c0: 0532 6e3e 39ea f33d 746d e9bd c92d fbbc
000000d0: fe50 99bd 8a82 1ebe 9e92 193e b13c 16bd
000000e0: 02b5 44bd ea3b ccbb d923 3abd a380 343e
000000f0: 86fe 513e 4528 a5bd b498 943d 64d3 643c
00000100: 3755 febd 560a 18be a8f9 4bbd 8cb6 2ebe
00000110: 21e6 023e cce2 2b3e ccc8 22bd e50c 313e
00000120: 9507 863c e732 3d3e 4dca 493d 5380 353e
00000130: 15bf e3bd 69db cfbd a515 20be a3b7 893c
00000140: 3c2f 8cbd 87ec 07bd 9069 fe3d da07 b6bd
00000150: 9a4c 123e f4b4 95ba 2722 56bc 7326 053e
00000160: f938 2bbd 024a a53d 3ce1 c5bd d4ff 44be
00000170: 21f2 1abd e5c8 56be 9f60 483e b6f9 bebc
00000180: 8310 3a3e cd0a afbb 87d5 143e 5573 9a3d
00000190: 2f56 4f3e 46af 46bc 4e51 ce3b 4f3c 123d
000001a0: 5f85 ecbd 9afc fc3d c9c5 3f3d 51e0 fd3d
000001b0: c7d6 f73d 75db 913d 0325 f2bd 0174 1b3e
000001c0: 2057 2c3e edcb e0bd e572 c53d d82d 303e
000001d0: 80b9 2f3d c821 42be f150 583c 54a4 133e
000001e0: 1be7 5f3e 68be 783d 3a95 02be a5cc 833d
000001f0: cfea 4f3e 8fd8 573e 8342 553e fd93 b43d
0.007826445 0.079435915 0.11676535 -0.11110886 0.12772387 -0.011260521 -0.028887333 -0.0003035478
-0.06329794 0.011507264 0.023431368 -0.014188465 -0.09650924 -0.046613514 -0.13840352 -0.077709615
-0.07248934 0.18831448 -0.025036132 0.09353687 0.07430663 -0.04020256 0.0968617 -0.10576606
0.14353777 -0.11357105 0.07627713 -0.0018931433 0.19227673 -0.03423218 -0.09825345 -0.0012337541
0.046818953 -0.0559204 0.18327443 0.18443498 -0.036781464 0.1937764 0.1513587 0.2162389
-0.011737197 -0.12432702 0.01990415 0.15038659 0.09695943 0.10708035 0.07813274 -0.073171444
0.23261268 0.11909909 -0.1139783 -0.03066148 -0.07486151 -0.15479484 0.14997336 -0.036678974
-0.048024185 -0.0062327283 -0.045444343 0.17627196 0.20507249 -0.080643214 0.07255688 0.013966415
-0.12418597 -0.14847693 -0.049798638 -0.17061824 0.127831 0.16785735 -0.039742276 0.17290075
0.016361037 0.18476449 0.049265195 0.17724733 -0.111204304 -0.10149271 -0.15633257 0.016811198
-0.06844947 -0.033184554 0.12422478 -0.08888216 0.14287034 -0.0011421726 -0.013069666 0.13002948
-0.04180238 0.080707565 -0.09662101 -0.19238216 -0.03782857 -0.20975073 0.19568108 -0.02331243
0.18170361 -0.0053418637 0.14534579 0.07541529 0.2024772 -0.012126749 0.0062963134 0.035702046
-0.11548876 0.123528674 0.046819482 0.123963006 0.121015124 0.07121936 -0.11823466 0.1518097
0.1683011 -0.10976396 0.09641055 0.17204988 0.042901516 -0.18958199 0.013202892 0.14418155
0.21865503 0.06072846 -0.12752238 0.06435517 0.20304416 0.21078704 0.20826153 0.08817289

fund_dense.0.weight f4 [16, 4]
00000000: bc27 09be 0067 cebc 8417 9cbe fad5 ef3e
00000010: 30c8 893d 9444 7fbe 28e7 88bd 007a 90be
00000020: 3430 febe d04d 893e 98b8 3a3e 86a3 8a3e
00000030: fcbb 443e 5c2a 773e 880f f7be 30e0 753d
00000040: fa18 f7be 44fc 4bbe 3895 ba3d 007d d9bc
00000050: b441 94be bc0f 023e 6240 8a3e ec4f febe
00000060: 860d e8be 3a93 e8be 7257 d7be 00e3 e93b
00000070: 2049 b33c ce05 d13e 6456 e23e 3e4b c93e
00000080: 90ae 4abe a024 cabd c2c7 a43e 403c 9cbd
00000090: 1c62 bc3e 20e2 103e b830 d9bd 540e 25be
000000a0: 1abb ad3e 2415 323e c832 123e 986f f2be
000000b0: a80c 0dbe 50e4 37bd feab a0be 5a3d a93e
000000c0: 8874 54be 86c4 923e 0e63 e73e 4a07 9bbe
000000d0: ee4c 8b3e c6b3 e9be c470 323e 5030 90be
000000e0: c070 d53c 700d c7be 1cc2 d7be f44c 8d3e
000000f0: 3cdd 513e 0080 2c3c ca90 eabe d40b f23e
-0.13394064 -0.025195599 -0.3048669 0.4684294 0.06727636 -0.24928504 -0.066847146 -0.2821808
-0.4964615 0.2681718 0.1823448 0.27077883 0.19212335 0.24137253 -0.48254037 0.060028255
-0.48261243 -0.1992045 0.091104925 -0.026548862 -0.28956378 0.12701315 0.27002245 -0.4967035
-0.45322818 -0.45424825 -0.42058903 0.007137656 0.021885455 0.4082474 0.44206536 0.39315218
-0.19793153 -0.09870267 0.32183653 -0.07628679 0.36793602 0.1414876 -0.106049955 -0.16118747
0.3393181 0.17390877 0.14277184 -0.47350764 -0.13774359 -0.04489547 -0.3138122 0.3305462
-0.20747578 0.2866556 0.4519276 -0.30279 0.2720713 -0.4564497 0.17425829 -0.2816186
0.02605474 -0.3887744 -0.4214028 0.27597773 0.2049455 0.010528564 -0.4581359 0.4727465

fund_dense.0.bias f4 [16]
00000000: 32c1 febe 33b0 c03e 5ed7 043f ea83 f63e
00000010: 8467 37be 30fe e5be 4403 87be 4c35 6e3e
00000020: 60a7 8cbc 0400 043f 286f d7bd ab6b f23d
00000030: 00fa 15bc bb06 f43e 601d cbbd b303 d93e
-0.4975677 0.3763443 0.51891124 0.48147517 -0.17910582 -0.44920492 -0.2636968 0.23262519
-0.017169654 0.51562524 -0.10519248 0.11836942 -0.009153843 0.47661385 -0.09917712 0.42385635

combined.weight f4 [1, 48]
00000000: 91ec 463b fd34 b3bd e675 12bd 42a0 bfbc
00000010: 39dd 1a3e 802b 6c3d 54a5 293d 89ef 3c3d
00000020: 4907 193e 1ecd f43d 9f0f 2abe 4e8f 173e
00000030: 7aec b3bd 418a a63d 82c9 1d3c 65a4 ef3d
00000040: b824 81bd 5c9b 12be 470b 00be 2183 68bc
00000050: f2a4 32bc dc32 cf3d 7197 36be cc11 b53a
00000060: 0fdf 6dbd c05d 35be df54 b43d 1609 36be
00000070: 0737 17be dd4b d7bd fe82 283e baa0 ec3d
00000080: c420 67bd 88a2 823d db4f 5c3d 5b55 153d
00000090: 883c e93c 112c a2bd b072 603c 8aab 8b3d
000000a0: c448 f63d f88b 193d 309e cdbd 69e9 ea3d
000000b0: e081 133e a889 e23d f15f 8cbd 61dc a4bd
0.0030353407 -0.08750341 -0.035756968 -0.023391847 0.15123452 0.057658672 0.041417435 0.046126876
0.14944185 0.119531855 -0.16607521 0.1480076 -0.08785339 0.081318386 0.009630563 0.11701278
-0.06305832 -0.14317077 -0.12504302 -0.01419142 -0.010903584 0.101171225 -0.17831208 0.0013814508
-0.058074053 -0.17711544 0.088052504 -0.17776904 -0.14767085 -0.10512517 0.1645622 0.11554094
-0.056427732 0.063786566 0.053787094 0.036458354 0.028471246 -0.07918561 0.013699219 0.06819828
0.12025598 0.037487 -0.100399375 0.11470301 0.14405012 0.11061412 -0.06854237 -0.080498464
