models/hybrid_model_CVNA.pth (torch, 24947 bytes, 7 tensors)

tech_lstm.weight_ih_l0 f4 [128, 8]
000000 38 e2 4c be 98 b9 67 3d b8 c1 bd bc 98 11 b4 3d
       -0.2000817 0.05657348 -0.023163661 0.08792418
000010 6f 42 68 3e 7b 12 d2 bd bf 6b df 3d cd 6b 6c be
       0.22681592 -0.10257431 0.10909223 -0.23087998
000020 25 d7 6c 3d 56 2a 96 3d 8a 66 e4 3d 7a a8 23 bd
       0.057822365 0.07332294 0.1115237 -0.039955594
000030 49 7f 21 be c4 8a 55 3e 8f 49 98 3b 38 9d 34 be
       -0.15771212 0.20853716 0.0046474407 -0.17638099
000040 c0 d3 49 be 9c be da 3d 96 ef 99 bd 95 ad 3e 3e
       -0.19709682 0.10680887 -0.075164005 0.18620904
000050 f8 fc ae 3b 6c ad 95 bd 94 10 59 3e 4f ad c0 bd
       0.005340215 -0.07308468 0.2119773 -0.09408056
000060 96 b2 4c bd 2b 52 2d bd 88 97 83 bd ed b0 28 3e
       -0.049975 -0.04231469 -0.06425387 0.16473742
000070 2f 50 6e 3d 6b 5e 2a 3e b1 00 98 3d 9c b4 54 3d
       0.058181938 0.1663758 0.07422007 0.051930055
000080 07 f8 89 3d 2c 2f 8b bd 1d ef 57 bd a6 4c 36 bc
       0.067367606 -0.06796107 -0.05271827 -0.011126673
000090 0c dd 89 3d bd b9 31 3a ef a3 2f 3e 08 e2 87 bd
       0.067316145 0.00067796913 0.1715238 -0.06634909
0000a0 21 d0 26 3e 26 e7 b8 bb 08 d2 d6 3d 09 f1 0f be
       0.16290332 -0.0056427894 0.10489279 -0.14056791
0000b0 5a 31 52 3d a6 d3 76 3e fe ce 1a 3e e7 11 37 3e
       0.051316597 0.24104175 0.15118024 0.17877923
0000c0 b9 25 32 be 96 b3 9e 3d 3c 9d 9e bd 03 8a 5a 3e
       -0.17397203 0.07749097 -0.07744834 0.2134171
0000d0 0a a4 74 bd 45 2e 4f bc 71 e2 c7 3d ff 98 1f 3c
       -0.059726752 -0.012645309 0.09759987 0.009741067
0000e0 0b 6c ca 3d 08 72 79 bd 25 c8 33 3e fb 4a 20 3e
       0.09883889 -0.060899764 0.17556818 0.15653603
0000f0 d1 36 c6 bd 33 24 43 3e 29 07 c7 3d cc 02 53 3c
       -0.09678424 0.19056778 0.097181626 0.012879085
000100 a3 c3 1f 3e 8f 29 54 be 06 b7 eb bd f0 f6 1d 3e
       0.15601973 -0.20718978 -0.11509518 0.1542623
000110 f3 f2 ba bd 0e a0 55 3e bc a3 b8 3d 1b 1c 45 3d
       -0.0912837 0.20861837 0.09015605 0.048122507
000120 3a f8 56 3e 08 99 26 be eb 3a 03 3e 1f 35 cf bd
       0.20993128 -0.16269314 0.12815444 -0.10117554
000130 f3 6e 15 bd 6d 5d eb bd f6 65 f0 3d 92 e1 23 3e
       -0.036482763 -0.11492429 0.117381975 0.16004017
000140 36 97 63 3d a7 de 85 3d cf e6 20 3e 36 a2 3c bd
       0.055564128 0.06536608 0.15713046 -0.046053134
000150 b6 1b 20 3d cc 06 0f 3e 47 72 07 3e 6d 52 c9 bd
       0.039088927 0.13967437 0.13227187 -0.098301746
000160 7a 8e 12 bc f0 27 82 3d bf 57 e4 3b e9 83 7a bd
       -0.008945102 0.06355274 0.006968468 -0.061160956
000170 29 6d fc bd 2a d5 56 3d e9 88 33 bc 8b 75 2d bd
       -0.12325508 0.052449383 -0.010957935 -0.042348426
000180 1a af 2e bd 71 2f c3 3d 2c 66 d9 bc 82 d1 2e 3e
       -0.04264746 0.09530533 -0.026537977 0.17072108
000190 82 04 81 bd d4 2e 12 3e 09 81 02 bd 0f f5 02 bc
       -0.06299688 0.14275676 -0.03186134 -0.007992997
0001a0 fa 6c 49 3d e9 4b 54 3d 68 a0 2c 3c e3 8b 04 3e
       0.049176194 0.051830206 0.010536291 0.12943988
0001b0 62 af 90 bb fe c4 a6 3d a4 16 fb 3d dd dc fb 3d
       -0.0044154385 0.08143042 0.12260178 0.12297986
0001c0 55 87 85 3b 3e 9e 41 be 06 9b ab 3d db 2a d8 3d
       0.0040749707 -0.18908021 0.08379178 0.10555049
0001d0 e8 12 a1 bc fc b7 a5 bb 9e 52 62 3e 03 32 e8 3d
       -0.019662336 -0.005057333 0.22101828 0.11337664
0001e0 28 a5 eb bd dd 0c 5f 3d f3 d4 11 3e d6 a1 0a be
       -0.115061104 0.054455627 0.1424139 -0.13538298
0001f0 a3 32 09 be 4d d3 c3 3d 86 c7 06 3e ba 56 3c bd
       -0.13398223 0.09561787 0.1316205 -0.045981146
000200 9b 48 83 bd d2 a6 db bd b8 b0 90 bb a8 22 14 be
       -0.06410333 -0.10725178 -0.0044155978 -0.14466345
000210 bd 11 f3 bd fb c5 07 3e 75 2e 03 bc f0 08 01 be
       -0.11868618 0.13259117 -0.008006682 -0.12601066
000220 ee a2 99 bd 02 d3 ff bc 18 9e 6e bd c6 8f 1e 3b
       -0.075017795 -0.031228546 -0.05825624 0.0024194582
000230 06 cc 26 bd bd 0f ce bd ae 74 1e 3d 54 78 30 bd
       -0.040721916 -0.100615956 0.038685493 -0.043083504
000240 57 7e 5a 3e aa 9d e4 3d 1a 3f 23 be 5a ac 18 be
       0.21337257 0.111628845 -0.1594204 -0.14909497
000250 93 52 35 bd a1 7e 72 3e 0b 94 5f 3e 47 89 4c be
       -0.044268202 0.23681118 0.21833818 -0.19974242
000260 21 0a 96 3d 74 f3 0b 3e e3 52 3e 3d a9 2c 21 3e
       0.07326151 0.13667089 0.046465766 0.15739693
000270 10 96 b8 bd 85 46 2f 3e ea 55 83 3d 8f a9 52 3e
       -0.09012997 0.17116745 0.06412871 0.20572494
000280 b9 de 45 bd 12 93 26 be 19 f7 45 3e 0b b5 df bd
       -0.048308108 -0.1626704 0.19332542 -0.10923203
000290 ae 0a 73 bd f3 e3 82 3d 01 f9 54 bd 7d d2 9d bd
       -0.059336357 0.06391134 -0.05199528 -0.07706163
0002a0 5c 35 cc 3d 53 f4 1e be 78 2b 3c 3e 06 c6 bb 3d
       0.09971115 -0.1552289 0.18375957 0.09168629
0002b0 23 52 99 3d ec e8 22 3e 71 c1 d9 bd 91 d4 93 bd
       0.074863695 0.15909165 -0.10632599 -0.07218278
0002c0 e4 5b 40 be dd b7 ba 3d 63 57 e3 bd 9a c6 5a 3c
       -0.18785053 0.091171004 -0.11100652 0.013353014
0002d0 05 f7 18 bc 61 5b cc 3c 6f 28 e8 3d d2 a4 2d be
       -0.009336238 0.024945917 0.11335837 -0.16957405
0002e0 6a 80 b8 bd 37 1d 59 be 67 c0 b2 3d 34 5a 7d 3d
       -0.09008868 -0.21202551 0.08728104 0.061853603
0002f0 c4 69 62 bd 02 6f d1 bd a1 7c 40 3e 17 6e de bd
       -0.055276647 -0.10226251 0.18797542 -0.10860842
000300 69 86 c2 3d e9 f7 02 be f3 d7 77 3d 10 5d 4d 3e
       0.09498293 -0.12789883 0.06050868 0.20055032
000310 6b 88 ac bd e5 13 cd 3d ec d4 fb 3c fa 79 76 3d
       -0.08424457 0.1001356 0.030741177 0.06017492
000320 8e 22 23 3e 8a 99 d0 bd fe 50 e9 3d 39 f3 13 be
       0.1593115 -0.10185535 0.11392401 -0.14448251
000330 f1 c0 a8 bc 14 84 a3 3d 9b 04 61 3d ca 0b ca 3d
       -0.020599814 0.07984176 0.054936033 0.0986553
000340 bc 9a a9 3c c8 b0 87 3d 7f ea b7 3d f7 a1 17 3d
       0.020703666 0.06625515 0.089802735 0.037019696
000350 9f 0e 00 3c de 6a 78 3d 8d 69 eb bd 04 43 7e bd
       0.007815986 0.06064879 -0.114947416 -0.06207563
000360 56 3f 09 bd bc 2d c2 bd 47 2d e7 3d 39 e3 33 bd
       -0.033507667 -0.094813794 0.11287933 -0.04391787
000370 49 40 57 3e 42 2f e0 3c 1c ba f5 bc 18 d5 bb bc
       0.21020617 0.027366284 -0.02999597 -0.02292876
000380 fc fd d3 bd e0 b6 0e bd 3b 95 75 3d f0 9a 85 bd
       -0.10351178 -0.034842372 0.05995677 -0.065236926
000390 c2 3e a3 3c d2 a5 d2 3c 8d 32 03 3e e7 e0 8f 3d
       0.019927386 0.025713835 0.12812252 0.070253186
0003a0 b5 84 ca bd e0 0b b7 3c 0a 1d e1 bb ad 5e f4 bb
       -0.09888593 0.02234453 -0.006869917 -0.0074575753
0003b0 98 a2 67 be 74 fc a6 3d 7c 10 bd bb 11 32 68 3e
       -0.22620618 0.0815362 -0.0057697874 0.22675349
0003c0 f8 1e 49 bd 1b 34 48 3b 37 ae 03 3e 28 ce d8 bd
       -0.0491018 0.0030548635 0.12859426 -0.10586196
0003d0 31 68 72 3d 6c 9f b0 3d 08 3f 40 3d e9 2b 93 bd
       0.059181396 0.08624157 0.04693511 -0.071861096
0003e0 70 f0 5c be ef 72 fa 3c ec 96 0c be d1 12 79 bd
       -0.21576095 0.030572383 -0.13729447 -0.06080896
0003f0 f6 63 a0 3c aa 72 c7 bd ef 2c b2 bd 4b c3 4d be
       0.019578915 -0.09738667 -0.08699977 -0.2009403

tech_lstm.weight_hh_l0 f4 [128, 32]
000000 fa c0 30 be d1 90 b5 bc 22 47 a4 3d 57 1b 9a bb
       -0.17261115 -0.02216378 0.0802138 -0.004702966
000010 b5 3f 2e 3e f4 d4 43 be 9a 51 96 bd 00 31 aa 3d
       0.1701649 -0.19124204 -0.07339783 0.08310127
000020 c8 90 9e bd 42 96 62 be c6 9f 0f be 5e 27 a2 3d
       -0.077424586 -0.22127631 -0.14025792 0.07917665
000030 77 ce 43 3d 5a 26 96 3d 6c b2 53 bc a9 61 b2 bd
       0.047804322 0.07331534 -0.012920957 -0.087100334
000040 1b 5f 03 3d 9b 83 7f bd 3f e4 7f 3e d7 ee ce 3d
       0.03207312 -0.062381368 0.24989413 0.10104149
000050 66 d2 fc bd 07 09 98 bd 2a d3 85 3c 35 88 09 be
       -0.12344818 -0.07423597 0.016336042 -0.13430865
000060 62 50 a0 3d 1b 4f 81 3c 89 12 6d bd 3e b6 7c be
       0.07827832 0.01578479 -0.057879005 -0.24678895
000070 de 45 94 3c a8 7f 13 bd 24 ff 80 bd 28 74 5c bd
       0.018099722 -0.036010414 -0.06298664 -0.053821713
000080 d8 ba 5a bc 3f 7b 74 be cb 9c 66 be c4 e7 36 3e
       -0.013350211 -0.2387514 -0.2252075 0.17861849
000090 b0 06 24 3e 99 aa b0 3c 03 a7 08 3e 01 64 51 3e
       0.16018176 0.021565722 0.1334496 0.20448305
0000a0 3d 30 fe 3c 75 67 37 be e9 b5 68 3d 88 5c ff 3c
       0.031028861 -0.1791056 0.056814108 0.031172052
0000b0 5e 86 81 be 28 ef 38 3e df 20 ed bd 57 de 8f 3d
       -0.25297827 0.18059981 -0.11578535 0.0702483
0000c0 5b d9 d5 bc 56 d6 dd bd 29 67 d3 bd 33 f9 d8 3d
       -0.02610462 -0.10831897 -0.103224106 0.10594406
0000d0 3e 92 d5 bd 78 bf 11 bc 51 27 d7 bc b9 2c 5e 3e
       -0.10428284 -0.008895747 -0.026263865 0.21696748
0000e0 88 24 83 bd f8 b3 21 be e7 39 1e 3d f4 45 ca 3d
       -0.06403452 -0.15791309 0.03862944 0.09876624
0000f0 84 ec 6c 3e 29 8f 1f be 0b 42 af 3d 4e df 53 3e
       0.23137099 -0.15581955 0.085575186 0.20690653
000100 eb 83 c4 3c ba 73 c6 bd 71 d8 b2 bd 23 09 07 be
       0.023988685 -0.09690042 -0.08732689 -0.13187079
000110 f1 fe 67 bd 05 fa be 3d 87 5a 9c 3d 5b a8 28 be
       -0.056639615 0.09325031 0.07634454 -0.16470473
000120 8c ec 23 be 75 e2 40 be 5a a5 ee 3d e8 9c 86 3c
       -0.16008204 -0.18836387 0.11652632 0.01643224
000130 4f 0f ce 3c ae 26 dd bc c2 b1 bd bd d9 a5 df bd
       0.025153784 -0.026995983 -0.0926242 -0.10920305
000140 7d e8 91 bd 43 c6 c8 bd 59 79 21 bd c8 4c 88 3d
       -0.07124422 -0.098034404 -0.039422367 0.0665527
000150 c6 c3 40 be 7a bf 00 bd d7 30 e3 3d c8 23 74 bd
       -0.18824682 -0.031432606 0.110933 -0.059604436
000160 b5 53 45 bd 0b 4f e4 bd 02 87 3d 3e ec 59 06 3c
       -0.048175532 -0.11147889 0.18508533 0.00820015
000170 12 c5 02 3d 19 26 5f 3d 45 6d 31 3d 6b e5 93 bd
       0.031926222 0.054479692 0.0433171 -0.072214924
000180 15 8a 15 be dd 2f 0d be f9 30 47 be 92 8d a8 bd
       -0.14603455 -0.1378779 -0.19452275 -0.082301274
000190 b1 80 fa 3d f5 f5 de 3c 65 4f 11 bb be c4 6c 3e
       0.12231577 0.02721689 -0.0022172567 0.23121926
0001a0 dd 49 32 bd f9 1f df 3d 14 0a 95 bd e9 bd 31 3d
       -0.043527473 0.1089477 -0.07277313 0.043394003
0001b0 19 94 06 3e 66 8b 94 bd 64 51 67 bc b3 0a 40 bd
       0.13142432 -0.07253151 -0.014118526 -0.046885204
0001c0 1e bb b1 3d be 2c ed bc 32 c8 53 3e 88 ff 26 3e
       0.08678268 -0.028951999 0.20681837 0.16308415
0001d0 ab a0 2b be 49 94 d3 3d 7d 8d 04 be 44 30 2e 3e
       -0.16760509 0.103310175 -0.12944598 0.170106
0001e0 97 1e 57 3d 29 bf 9c bd 68 25 99 bd b2 8a 48 be
       0.052519407 -0.076536484 -0.07477838 -0.19584158
0001f0 8e 5f ce 3b a1 73 1a 3d ca fd 5b bc f6 5f 0f 3e
       0.006298012 0.03770793 -0.013427207 0.1400145
000200 5f 21 78 be fc ac c6 bd 3c 52 9d 3d d4 a7 f4 bd
       -0.2423148 -0.09700963 0.076817006 -0.11946073
000210 d8 de 2f bd af 19 af 3d c9 2a 49 bc cf 95 4f bb
       -0.04293713 0.08549821 -0.012278267 -0.0031674986
000220 cb 53 d5 bb 7c 29 48 bd 19 dd d7 3d c2 be 68 be
       -0.006510233 -0.048867688 0.10540218 -0.22729018
000230 35 fb 86 3c b6 8b c5 3d 08 9b 8f bd 4f 21 e5 3d
       0.016477207 0.09645788 -0.07011992 0.11187994
000240 e0 cd 1f bd 2f 28 aa bd 89 19 45 3e 71 92 a1 3d
       -0.039014697 -0.08308446 0.19248022 0.078892596
000250 d1 ac 81 3c 57 06 5b 3e 23 8b bc bc 86 97 9d 3d
       0.015829476 0.21389137 -0.023015564 0.076949164
000260 7e 46 71 bd 75 54 02 3d 3d 4a 6f 3d b2 bc 1b bd
       -0.058905117 0.031818826 0.05842041 -0.03802175
000270 c2 2e 19 3e ba 76 7a bd a0 19 c6 bd 39 b3 e0 3d
       0.14959243 -0.061148383 -0.09672856 0.10971684
000280 9d 2e 6b bd 9b 9d 38 be 84 fd 28 3d 9f 79 70 3b
       -0.0574175 -0.18028872 0.041257396 0.0036693586
000290 16 97 f9 3d 93 5a 6b bd db 2a 57 3e bc 3b c3 bb
       0.121870205 -0.057459425 0.21012442 -0.0059580486
0002a0 c2 c6 a9 bc e2 3f 1d be 04 01 bf bd 64 b7 ee bd
       -0.020724658 -0.153564 -0.093263656 -0.11656073
0002b0 00 a9 6e be 54 0b 0d 3e ba ae 19 be ef a1 7f bd
       -0.23306656 0.13773853 -0.15008059 -0.06241029
0002c0 7c f6 88 3c c7 a1 b6 3d e4 35 4c 3e 20 7d 2a 3d
       0.016719095 0.08917575 0.19942433 0.041623235
0002d0 0a cb 10 be 79 3c 84 3c ac 40 5c 3e db 39 b8 3d
       -0.14139953 0.016142117 0.21509045 0.0899541
0002e0 88 52 f4 bd 8e d3 41 be c5 af 03 3e ee 79 0a 3d
       -0.11929804 -0.18928358 0.1286002 0.033807687
0002f0 b3 f1 e4 3d 10 c9 32 bd 99 f1 e0 bd 00 b4 46 bc
       0.11178913 -0.04364878 -0.10983581 -0.012127876
000300 c9 f1 46 be 27 83 06 be ff 48 2e be 7e c1 f5 3d
       -0.19428171 -0.13135968 -0.17020033 0.11999796
000310 6e 1e 87 bd ed 15 c1 3c 58 51 e6 3c 39 f7 ae bc
       -0.06597601 0.023570025 0.02811496 -0.02135812
000320 8d 4c 35 be 8a c3 44 bd 61 c6 b4 3c b8 6c 42 be
       -0.17704983 -0.048038043 0.02206725 -0.18986785
000330 6c 8d 56 be fa 7c c0 3d ad 30 f2 bd 71 93 0c be
       -0.20952386 0.093988374 -0.118256904 -0.1372812
000340 b1 ad 70 3c 9c 77 82 bd ca 38 78 3c 23 99 7b 3e
       0.014689849 -0.0637047 0.015150258 0.24570136
000350 38 18 40 be 58 a5 11 3e 58 50 1a 3e 2b 11 46 3e
       -0.18759239 0.1422323 0.15069711 0.19342487
000360 17 35 65 bd 4e 50 0b be 38 f4 e7 3d 0a 1f 50 bd
       -0.055958834 -0.13604853 0.11325878 -0.05081085
000370 c5 07 60 bd 56 ee 2f 3d e5 e3 68 be 05 02 82 3c
       -0.05469491 0.042951904 -0.22743185 0.015870104
000380 d8 31 05 3d ab 90 ee bd b5 b0 e9 3d ec 9a c9 bd
       0.032518238 -0.11648687 0.11410657 -0.09844002
000390 58 05 41 3d ee 15 0c 3d 69 18 97 3b 60 83 99 bc
       0.047124237 0.0342006 0.004611064 -0.018739402
0003a0 f0 40 70 be 16 fc 8d 3d 6a a0 f2 bb 27 98 4e 3d
       -0.23462272 0.06932847 -0.0074043768 0.050438073
0003b0 37 d9 dc 3b 30 0a 4f 3e a4 7a a6 3d 59 a3 9d 3c
       0.006739761 0.2021873 0.081288606 0.01924293
0003c0 71 cd e4 3c 84 f9 8c 3d 08 70 ab 3d ed a1 75 bb
       0.027929993 0.06883529 0.08370978 -0.0037480548
0003d0 bb 14 57 be 93 e1 ef 3c b2 6e 1a 3e 15 5b 60 3d
       -0.21004002 0.029282367 0.1508129 0.054774363
0003e0 ca 8d 25 be 68 0d 3a be 09 c1 88 bd ee 1b 02 be
       -0.1616737 -0.18169177 -0.066774435 -0.12705967
0003f0 12 49 be 3d 9a cb ca bc 0e 07 20 be 3b ae 84 bc
       0.09291281 -0.024755288 -0.15627691 -0.01619636

tech_lstm.bias_ih_l0 f4 [128]
000000 78 b5 4d 3e 70 d4 91 3d d3 6a 66 3e 64 c8 3c 3d
       0.20088756 0.07120597 0.22501688 0.046089545
000010 9d 9a 03 3e 4e 8d db 3c b1 9c 1f 3d 49 03 a7 bd
       0.12851949 0.026800778 0.038967792 -0.081549235
000020 46 f4 bc 3d 79 34 1d bc fb c5 81 bd 98 f3 19 3e
       0.09226279 -0.00959503 -0.0633659 0.1503433
000030 1a df f9 3c a2 3e 05 3e 2f e7 4c 3d 94 93 d8 3d
       0.03050189 0.13012174 0.05002516 0.10575023
000040 01 94 c1 bd 98 ea 5b 3e 22 12 22 3e 2b 00 ce 3d
       -0.09452058 0.21476209 0.1582723 0.10058626
000050 cf 2d c1 3d 17 60 31 bb 9f e4 3b 3e 12 a4 3b 3e
       0.094325654 -0.002706533 0.18348931 0.18324307
000060 7f 4d 99 bd 34 b7 4f 3e 42 4e 23 3d d9 74 cd bc
       -0.07485484 0.2028473 0.039869554 -0.025080131
000070 52 78 c7 bd 31 f5 76 3d 87 67 20 bc 23 7b 7b 3e
       -0.09739746 0.060292426 -0.009790308 0.24558692
000080 c6 40 23 3d 0c e4 94 bd dc a6 7f 3e 63 c7 e8 bc
       0.039856695 -0.07270059 0.24965996 -0.028415387
000090 49 63 8a bc ea 4b 3a bd bc f6 90 ba 46 e2 00 3d
       -0.016893046 -0.045482554 -0.0011059861 0.03146579
0000a0 a3 fe 52 3e be d6 50 bc a2 9c d9 3c 62 90 f9 bc
       0.20604949 -0.012746511 0.026563946 -0.030464355
0000b0 af 9c 94 3d 20 fd 87 3d fe 09 bd bc 86 d1 63 bd
       0.072564475 0.06640077 -0.023076054 -0.05561974
0000c0 82 d6 d7 bb b2 8d f7 3d ab 34 81 3d d8 f8 65 3d
       -0.0065868506 0.12087573 0.06308874 0.05614552
0000d0 1a e1 d1 bd 10 41 3d 3e 9e f5 5e bd b9 2b 03 3e
       -0.10248013 0.1848185 -0.054433458 0.12809648
0000e0 48 60 d9 3d 7b 40 64 3e 7b 4e 77 3e 2b 7e 0d 3e
       0.10614067 0.22290222 0.24151032 0.1381766
0000f0 ea 10 22 3e 48 da 00 bb 45 69 e8 bc e2 3f 6e 3e
       0.15826765 -0.0019661356 -0.028370509 0.23266557
000100 18 a9 01 3d 46 e3 b6 3c 8b f5 2a be b9 74 e4 3d
       0.0316554 0.02232517 -0.1669523 0.111550756
000110 da 10 9a 3d 21 42 06 3d a5 cf 0d 3e c5 71 dc bd
       0.075227454 0.03277791 0.13848741 -0.10763887
000120 19 5e 4a be aa ea 04 be 14 ca ba bd 12 48 85 bd
       -0.19762458 -0.12980142 -0.091205746 -0.06507887
000130 f1 f8 8d bd 4e 91 d1 3d aa 0b 40 bc 49 aa b1 3b
       -0.069322474 0.10232793 -0.011721531 0.005421911
000140 71 42 a2 3d c4 5f 6e be 47 17 65 bd 2f 38 0a 3e
       0.07922829 -0.23278719 -0.055930402 0.13497995
000150 f5 5f 1f be 74 8c b4 ba 66 4a 8b bd ad 50 4d 3e
       -0.15563948 -0.0013774768 -0.068013 0.20050307
000160 4e 8c 85 3d cc 8f 6e be 63 d3 c2 3c 08 73 da bd
       0.065209016 -0.23297042 0.023782438 -0.10666472
000170 68 92 b4 3d 3e 2e c8 bd 2b 34 ab bd 82 5e 67 3e
       0.08816987 -0.09774445 -0.083595596 0.22594646
000180 36 5f 87 3d d6 1d 72 3c 77 d0 ef 3d c7 f3 84 3d
       0.06609957 0.014777621 0.117096834 0.06491809
000190 c6 f0 1d 3e 2c e1 88 3e 75 41 55 3e e4 55 1b 3e
       0.15423879 0.26734293 0.20825751 0.15169483
0001a0 35 46 95 3e 3c 80 60 3e 26 0e 2e bc ac 9a 8a 3d
       0.29155126 0.21923918 -0.01062349 0.067677826
0001b0 a9 26 2f 3c d2 60 ce 3d ce 54 3c 3e 41 54 55 3d
       0.01069037 0.10077061 0.18391725 0.052082304
0001c0 37 4a 70 3e 80 99 cb 3d 46 ec 16 3e 1b a2 e4 3d
       0.2346581 0.09941387 0.14738569 0.11163732
0001d0 cf d1 8f 3e a5 fe 18 3e 78 1a c7 3d 26 76 8c 3e
       0.2808976 0.14940889 0.097218454 0.2743389
0001e0 f4 a0 34 3e 5b d1 e2 3d e0 a6 9a 3d c2 8e 8b 3e
       0.17639524 0.11075088 0.0755136 0.27257353
0001f0 9b 1b 91 3e 35 6d 3c 3d 97 ad 0f bd 1c 83 16 3c
       0.28341374 0.046002585 -0.035077658 0.009186532

tech_lstm.bias_hh_l0 f4 [128]
000000 80 2c 4b bc bf 21 93 3d 15 ba 90 3d d9 ed 16 bc
       -0.012400746 0.07184171 0.07066742 -0.009211981
000010 67 40 0d 3e 2f 97 2d 3e 78 d9 7d bb 08 57 98 3d
       0.13794099 0.16952203 -0.0038734358 0.07438475
000020 e0 2e b3 3c 92 08 b4 3d e1 c2 37 3e ad cf b1 3d
       0.021872938 0.08790697 0.17945434 0.08682189
000030 13 6d ae bd 58 98 92 3d 8a 04 24 3c 2d cf 14 bd
       -0.08516898 0.071579635 0.010010848 -0.03633039
000040 63 7e 15 3d b4 80 81 3e 5c 95 6e bd 4e 41 6f bd
       0.036497485 0.25293505 -0.05824791 -0.05841189
000050 27 d0 e0 bc ba db 93 3c 72 b0 74 3e ed 24 35 3e
       -0.027443005 0.01804911 0.23895434 0.17689867
000060 23 01 30 3d ce f8 85 ba 1f 06 cb 3d 85 68 8b bd
       0.042969834 -0.0010221244 0.09913277 -0.06807045
000070 28 07 43 3e 71 c4 35 bb b0 f2 37 3d 1b 50 66 3e
       0.19045699 -0.0027735496 0.04490918 0.22491495
000080 ad 23 47 3e e7 34 86 bd 98 b2 7d bc b4 91 f4 bd
       0.19447203 -0.06553059 -0.015484475 -0.11941853
000090 a9 75 72 3e d7 96 8e bd ad 04 2c 3c b4 73 23 3e
       0.23677696 -0.06962364 0.010499162 0.15962106
0000a0 48 6d 05 3d e7 28 9c 3d fb dd df bd 6b b3 56 3e
       0.03257492 0.07624989 -0.10931011 0.2096688
0000b0 a0 1b a8 3d f8 70 6e 3e 56 f7 80 3e f8 83 a4 3d
       0.08208394 0.23285282 0.25188702 0.080329835
0000c0 6f 1d 0c 3d 64 4e be 3d dc 8e 15 3e 15 44 11 3e
       0.034207758 0.092922956 0.14605278 0.14186127
0000d0 4a 17 6c 3e 2b 2f 16 3d c8 ae 87 3d fe 93 d3 bd
       0.23055759 0.036666077 0.06625134 -0.10330962
0000e0 d1 1f 63 3e 79 cf d1 bd 00 8b e3 bd 5b 65 0c 3e
       0.22180106 -0.102446504 -0.111104965 0.13710539
0000f0 2a a6 20 3e 14 6d 30 3e 12 0d 0d 3e 27 a3 85 3a
       0.15688387 0.1722911 0.13774517 0.0010195718
000100 c3 35 5b bd b9 b7 a4 bd 38 9f 3e be 75 36 2c bd
       -0.053518068 -0.08042855 -0.18615425 -0.04204412
000110 cb 53 50 3e b3 d6 85 bd 41 a9 fd 3d a2 18 5e 3d
       0.20344464 -0.06535091 0.12385798 0.05422271
000120 3f cd c5 bb 06 ab bf 3c b3 86 7a 3d ba 3a 24 be
       -0.00603643 0.02339698 0.061163615 -0.16038027
000130 47 a7 2f bd cf b5 5d 3e 24 e0 68 be f7 e8 95 bd
       -0.042884137 0.21651386 -0.22741753 -0.07319825
000140 27 76 f0 bd a1 56 09 be 10 7b 4b 3e f2 11 06 3e
       -0.11741286 -0.13411953 0.19871163 0.13092783
000150 1d 51 85 3d 2f 50 8d 3d 51 c5 37 3e 4d 4e 59 bc
       0.06509612 0.069000594 0.17946364 -0.013263297
000160 62 20 9e bc 1c d3 10 be 34 17 1e 3e 92 15 6f bd
       -0.01930255 -0.14143032 0.15438539 -0.05837018
000170 79 6e 41 3e d2 41 b0 bc a5 00 06 be fb b7 b7 3d
       0.18889798 -0.02151576 -0.13086183 0.08970638
000180 41 58 3a 3e f9 50 f8 bb 07 d0 86 3e 7e 8e 82 3e
       0.18197729 -0.007578012 0.26330587 0.25499338
000190 c9 f3 56 3d 37 99 2b 3e 2e 6c 93 3e 99 96 f2 3d
       0.052478585 0.16757666 0.28793472 0.118451305
0001a0 9e d2 76 3c 24 db 93 3e 92 f7 32 3e 77 35 80 3e
       0.0150648635 0.2887813 0.17477253 0.2504079
0001b0 b5 f0 28 3e bf c2 08 3e 70 70 08 3e 06 0b 8c 3e
       0.16498072 0.1335554 0.13324142 0.2735216
0001c0 9c 88 a7 3e d9 07 1f 3d 24 a4 2e 3e c2 15 5c 3e
       0.32721412 0.038825843 0.17054802 0.21492675
0001d0 22 a2 12 3d ea 7c 87 3e 42 be 54 3d e8 ef f5 bb
       0.035799153 0.2646249 0.051939256 -0.0075054057
0001e0 11 ff 9e 3e 9a 7d 1f 3e 9f bf 22 3d 3e 2a a1 3e
       0.31053975 0.15575257 0.039733525 0.3147754
0001f0 a0 89 c2 3d fb e2 10 3e 8f 80 9b 3a 4a 55 a0 3e
       0.09498906 0.14149086 0.0011863875 0.3131507

fund_dense.0.weight f4 [16, 4]
000000 70 85 de 3e 78 19 be 3e 30 72 f4 3d e4 c3 7c be
       0.4346118 0.37128806 0.11935842 -0.24684101
000010 52 af da 3e c8 62 4c be 78 65 88 3e 18 f5 ae 3d
       0.42711884 -0.19959557 0.26639915 0.08542842
000020 9c 92 b9 3e 80 98 db 3b b4 f6 fa 3e 70 03 b1 be
       0.36244667 0.006701529 0.49016345 -0.34572935
000030 42 8d dc 3e bc 5f 7d 3e 6a 51 ad 3e f0 50 98 3d
       0.4307652 0.24743551 0.33851177 0.074373126
000040 d2 30 aa be 70 0a fc 3e ee dd f8 3e 60 ca 26 3e
       -0.33240372 0.49226713 0.4860682 0.16288137
000050 2a 87 f4 be d0 4e c7 be 38 64 b4 be 8c 20 c1 be
       -0.47759372 -0.38927317 -0.3523271 -0.37720144
000060 d0 b1 3d 3d c2 ba 99 3e c0 e6 8b bd e0 25 de be
       0.046312153 0.30025297 -0.068311214 -0.4338827
000070 40 6d 3d 3d 8e e9 ca 3e 98 90 a9 bd e0 12 fd 3c
       0.046246767 0.39631313 -0.08279532 0.03089279
000080 28 bc 90 bd 1c 4c 7a be e0 ae dd 3e d0 a3 18 be
       -0.07067138 -0.24443096 0.43297482 -0.1490624
000090 0c 92 8e be 32 ff 91 be 04 a8 bf 3e 3c e9 8b 3e
       -0.278458 -0.2851501 0.37432873 0.2732638
0000a0 0a 92 db be a4 07 e4 3e 60 ee bd be c0 7e ec 3e
       -0.42884856 0.4453708 -0.37095928 0.46190453
0000b0 88 94 dc bd 40 61 10 be 40 f0 6b 3c 44 85 22 be
       -0.107705176 -0.14099598 0.014400542 -0.1587115
0000c0 56 eb 96 be f2 b2 bf be c6 12 89 3e a0 4f e9 bc
       -0.29476422 -0.37441212 0.26772135 -0.028480351
0000d0 8c 56 af be 20 b5 79 3d 5c ca ca 3e 66 e1 b3 3e
       -0.34245718 0.06096375 0.39607513 0.35132903
0000e0 a0 b3 32 bd c0 b5 aa be 58 f9 8a 3d ba 6d f1 be
       -0.043628335 -0.3334179 0.0678584 -0.47154027
0000f0 6a ff a5 3e 5c 89 23 3e 22 a1 95 3e e8 88 6a 3e
       0.32421428 0.15970367 0.29224497 0.22903788

fund_dense.0.bias f4 [16]
000000 8b 62 29 3f ae 4f 75 3f 5c 17 88 be 89 f5 54 3f
       0.6616599 0.95824707 -0.26580322 0.83187157
000010 48 92 cf bd 36 aa 20 3f c1 f4 36 3f f2 9b 8f be
       -0.10135323 0.6275972 0.71467215 -0.28048664
000020 93 83 2b bc 1c 93 e3 be cc 5e 15 be fe 5f d0 be
       -0.010468381 -0.44448173 -0.14586943 -0.40698236
000030 fc 05 45 3f 9a 0c 68 3f 81 71 82 3f 6e d4 d3 be
       0.76962256 0.9064423 1.0190889 -0.41373008

combined.weight f4 [1, 48]
000000 49 0e 13 bf 36 57 12 bf fe 70 fa be 9c 95 06 bf
       -0.5744367 -0.57164323 -0.4891433 -0.52572036
000010 d4 35 15 3f e1 86 f9 be 41 75 1b 3f 05 a5 f9 3e
       0.5828526 -0.48735717 0.6072579 0.48758712
000020 5f 15 ed be c3 65 e9 be 40 fa 0f bf a0 b6 f5 be
       -0.46305367 -0.4558545 -0.56241226 -0.47990894
000030 0f b3 10 bf 9f d2 10 3f e1 2b 14 bf 12 91 02 bf
       -0.5652322 0.5657138 -0.57879454 -0.5100261
000040 55 3a d4 3e d4 de 14 bf e2 e9 0b 3f 7a be f3 3e
       0.41450754 -0.5815251 0.5465375 0.4760626
000050 7e 7f 06 bf 33 9c 00 3f b6 25 1d 3f 29 65 0d 3f
       -0.5253829 0.5023834 0.6138567 0.55232483
000060 80 37 04 bf 2a 44 fa be e7 5d 0f 3f b5 a4 16 bf
       -0.51647186 -0.4888013 0.5600266 -0.58845073
000070 cf 8b 14 3f 64 21 01 bf fd 72 12 bf 20 20 f2 3e
       0.5802583 -0.50441575 -0.5720671 0.47290134
000080 f9 95 19 3f e1 b2 e2 3e 2a c4 81 3d 54 dc 11 3f
       0.59994465 0.442771 0.063362435 0.5697682
000090 98 f4 9a 3c 09 63 a6 3e 1f 54 f4 3e c2 2a 11 bd
       0.01891546 0.32497433 0.4772043 -0.035441168
0000a0 8c 75 e2 bd 98 9c ee bc 10 fa 4e 3c c2 76 ba bd
       -0.110575765 -0.029127404 0.012632862 -0.091046825
0000b0 f6 95 08 3f e4 b5 0f 3f 74 dd f5 3e f4 2d bf 3d
       0.5335382 0.5613692 0.48020518 0.09334937
