models/hybrid_model_UPST.pth (torch, 24947 bytes, 7 tensors)

tech_lstm.weight_ih_l0 f4 [128, 8]
-0.023358062 0.20374723 -0.01949615 0.14051859 0.009941942 -0.060583413 0.1440041 0.1593445
0.19281656 -0.13311908 0.0034253078 -0.040741954 0.22153537 -0.122852005 0.17688599 -0.2168671
-0.21524069 0.113813244 -0.094591856 0.19215922 0.01497127 0.17738637 0.03621895 0.10069247
0.10805362 0.10737986 0.08016083 0.018553076 -0.054891538 0.030230284 -0.036142167 0.09212027
0.10972161 0.105922304 -0.0014748194 0.20455775 0.016099874 0.15147634 -0.09378174 0.0967339
-0.15484367 -0.19537134 0.122802615 0.18949835 -0.077662304 0.0072159413 0.03230538 -0.08681628
-0.1639327 -0.032771915 0.09848097 0.05075738 0.045471344 0.028448608 -0.066042624 -0.0039272606
-0.104615755 0.028429104 0.19349185 0.026005227 0.04705353 0.0054037743 0.043584235 -0.13751431
0.030405423 -0.14885128 0.06388284 -0.01968685 0.12930252 0.11150028 -0.12900437 -0.09284413
0.03888543 0.0040570027 0.08578161 0.12017316 -0.16965339 0.036676098 0.1553218 0.14932348
0.10353813 -0.042827636 0.14278963 0.11572958 -0.16545331 -0.09032706 0.16706017 0.11112433
-0.015704278 -0.15915258 0.21160571 -0.060487293 -0.1942879 0.19211365 0.13492757 0.053133365
-0.06542628 -0.06618319 -0.16246106 -0.13942496 -0.16259061 0.16141972 0.13710858 -0.09616296
-0.14881596 0.04963698 0.048361063 -0.13033967 0.0490164 -0.07602237 0.15227567 -0.14524126
0.13603592 0.046685867 0.0008956684 -0.005440337 0.20430298 -0.10236904 0.123878025 -0.046555895
-0.054102868 0.15964206 -0.11176834 0.08062817 0.1551396 0.08846977 0.1123521 0.1467202
-0.17042051 0.175728 0.048388597 -0.062038176 -0.0650414 0.17734423 0.1814002 0.090788245
-0.114940055 0.14019723 -0.06446645 -0.014531331 0.1135604 0.17325118 -0.05948933 0.027507933
-0.13519607 0.059622124 -0.15840168 0.16037884 0.11575143 0.12954664 -0.070949666 0.16002697
-0.07193925 -0.12104541 -0.08809376 0.05787531 0.17254573 0.20917267 0.1245784 0.10371865
-0.11522091 0.05926446 0.024955854 -0.007294962 -0.036703136 -0.10244392 0.20624314 0.086225994
0.21458285 0.047641017 0.0073009552 0.018762732 -0.12334438 0.097018786 0.10197213 -0.030762983
0.110537834 -0.04752518 -0.11274761 0.057500858 0.04016156 0.18794212 0.08864752 -0.22400327
-0.10054634 -0.12560941 -0.061269548 0.1747936 -0.079635225 -0.012232436 0.06147529 -0.14527805
-0.027906884 0.05784918 0.024856206 -0.14211728 0.09181604 0.066311486 -0.0030424756 0.13572598
0.021153409 0.11679856 -0.13289507 -0.026784748 0.12977888 0.14309219 0.1483265 0.11060335
-0.028274642 -0.16252126 -0.10259823 0.23464958 0.10905709 0.13654223 -0.007889399 0.12843475
-0.08963061 0.0035325014 0.051006895 -0.033928454 -0.072772406 -0.077680625 0.0033334116 -0.19414094
0.044673625 0.08627145 -0.081304155 0.1739477 0.15152507 0.119310975 0.1333144 0.09220259
-0.027786512 0.0447847 0.13419989 -0.04341609 0.07464731 0.15766212 0.0882722 -0.023031894
-0.00075950235 0.14021386 0.041424636 0.15612343 0.09959428 -0.085533135 0.06076815 0.08896285
-0.13759193 -0.030782467 0.029148996 -0.0714997 -0.123070806 0.14669874 -0.07360406 -0.12962681
00000000: 6859 bfbc 1da3 503e 64b6 9fbc 1be4 0f3e
00000010: 87e3 223c 5026 78bd d075 133e 342b 233e
00000020: b471 453e 5e50 08be 217b 603b 09e1 26bd
00000030: 2bda 623e d599 fbbd 9a21 353e 6912 5ebe
00000040: 0e68 5cbe eb16 e93d 60b9 c1bd 63c5 443e
00000050: 0f4a 753c c6a4 353e 525a 143d db37 ce3d
00000060: 374b dd3d f9e9 db3d 5c2b a43d 9ffc 973c
00000070: f3d5 60bd 80a5 f73c cf09 14bd 8da9 bc3d
00000080: b9b5 e03d cbed d83d ba4e c1ba 9677 513e
00000090: e2e3 833c 9d1c 1b3e a410 c0bd 6c1c c63d
000000a0: 578f 1ebe 6d0f 48be f07f fb3d db0b 423e
000000b0: 6a0d 9fbd b473 ec3b a552 043d bccc b1bd
000000c0: f9dd 27be d83b 06bd 64b0 c93d f8e6 4f3d
000000d0: 2940 3a3d 0e0d e93c 5b41 87bd 40b0 80bb
000000e0: c940 d6bd 27e4 e83c ba22 463e ea08 d53c
000000f0: 34bb 403d 2512 b13b 6285 323d 8dd0 0cbe
00000100: cb14 f93c 786c 18be 02d5 823d 5146 a1bc
00000110: e167 043e 425a e43d b919 04be 1025 bebd
00000120: 5446 1f3d 9bf0 843b 45ae af3d 591d f63d
00000130: 9eb9 2dbe ad39 163d ae0c 1f3e 41e8 183e
00000140: cd0b d43d 086c 2fbd 7237 123e a103 ed3d
00000150: 986c 29be 65fd b8bd d211 2b3e 2795 e33d
00000160: 42a6 80bc e5f8 22be 2baf 583e 86c1 77bd
00000170: 68f3 46be 71b9 443e 742a 0a3e 5fa2 593d
00000180: 37fe 85bd 0d8b 87bd 315c 26be 6bc5 0ebe
00000190: 277e 26be 364b 253e 3166 0c3e 16f1 c4bd
000001a0: 3663 18be 2550 4b3d 4016 463d c377 05be
000001b0: 6cc5 483d 9eb1 9bbd 27ee 1b3e 20ba 14be
000001c0: 004d 0b3e ae39 3f3d 4acb 6a3a db44 b2bb
000001d0: cd34 513e dca6 d1bd c3b3 fd3d 65b1 3ebd
000001e0: f89a 5dbd 3579 233e cde6 e4bd 6220 a53d
000001f0: eadc 1e3e a42f b53d dc18 e63d d23d 163e
00000200: b782 2ebe 0af2 333e 1f33 463d be1b 7ebd
00000210: 6d34 85bd ba99 353e f9c0 393e 30ef b93d
00000220: b165 ebbd dd8f 0f3e fc06 84bd d214 6ebc
00000230: 5b92 e83d c268 313e 15ab 73bd 5158 e13c
00000240: d770 0abe 5436 743d 0d34 22be 5a3a 243e
00000250: 160f ed3d e0a7 043e 0f4e 91bd 1cde 233e
00000260: e354 93bd a8e6 f7bd 806a b4bd a90e 6d3d
00000270: d4af 303e 5c31 563e f622 ff3d 726a d43d
00000280: f1f8 ebbd 4abf 723d 3870 cc3c 940a efbb
00000290: 0756 16bd 1ece d1bd 6731 533e 4197 b03d
000002a0: 9bbb 5b3e 3a23 433d da3c ef3b 4db4 993c
000002b0: fa9b fcbd c9b1 c63d c4d6 d03d a702 fcbc
000002c0: a961 e23d c3a9 42bd 38e8 e6bd 0586 6b3d
000002d0: 7380 243d e673 403e d58c b53d 1d61 65be
000002e0: 3deb cdbd c19f 00be c7f5 7abd 18fd 323e
000002f0: cb17 a3bd 8e6a 48bc 84cd 7b3d c5c3 14be
00000300: fa9c e4bc 43f3 6c3d 3e9f cb3c 3187 11be
00000310: 0c0a bc3d 51ce 873d 4564 47bb c0fb 0a3e
00000320: ea49 ad3c 1534 ef3d a515 08be b06b dbbc
00000330: c1e4 043e c286 123e e7e2 173e 0284 e23d
00000340: 39a0 e7bc f96b 26be 051f d2bd fb47 703e
00000350: 5359 df3d bad1 0b3e 8a42 01bc 6684 033e
00000360: 4190 b7bd 8a81 673b 9bec 503d 90f8 0abd
00000370: b309 95bd 0517 9fbd 5e75 5a3b e2cc 46be
00000380: b1fb 363d 16af b03d cb82 a6bd 591f 323e
00000390: 6329 1b3e 5059 f43d 9283 083e b6d4 bc3d
000003a0: 8aa0 e3bc 2970 373d b26b 093e 12d5 31bd
000003b0: b0e0 983d 2e72 213e 0ec8 b43d 62ad bcbc
000003c0: 5719 47ba 3994 0f3e e1ac 293d d2de 1f3e
000003d0: 16f8 cb3d ff2b afbd 06e8 783d 2832 b63d
000003e0: e6e4 0cbe 832b fcbc e0c9 ee3c 6f6e 92bd
000003f0: 8c0c fcbd 3238 163e babd 96bd e4bc 04be

tech_lstm.weight_hh_l0 f4 [128, 32]
-0.22863083 0.053632084 -0.12916364 -0.10298928 -0.06600277 0.17418452 0.10117329 -0.04045618
0.099429175 0.0066713537 -0.03204376 0.06069161 -0.19525708 0.06297326 0.06612083 0.14514114
0.14125372 0.062985174 0.060186423 -0.03618588 0.049524356 0.03622328 -0.07654441 0.1584022
-0.1895992 -0.0746405 -0.0023646224 0.065699406 -0.21223997 -0.08520188 0.13702682 -0.1895701
-0.08258584 0.17045091 0.07825787 0.0170372 0.07688556 -0.09874826 -0.19420327 -0.057639915
0.017168274 -0.2367258 -0.1699882 0.05809712 -0.20838405 0.041746903 -0.051518027 0.25503522
0.009643642 0.12746626 -0.020928657 0.20819159 0.12739274 0.045463283 -0.14386208 0.23248404
-0.12890193 0.108371764 -0.16351865 -0.16813199 -0.15641595 0.13294435 0.20216027 0.19585258
-0.1548369 -0.023859747 0.066197515 -0.15239222 -0.23966576 -0.07238719 -0.041920003 -0.014853556
0.030223614 0.005586655 0.08504411 -0.2533699 0.11542392 0.108276956 0.008645915 0.12817964
0.14417146 0.059118375 -0.09442817 -0.12991565 0.080499746 -0.0023999908 -0.14687201 0.17729713
-0.21673822 -0.0015025189 -0.21299538 -0.026287787 -0.18424742 0.19277705 0.13902482 0.006740654
-0.07752114 0.017229011 0.07826544 -0.01916534 0.13398156 0.14050907 -0.10463505 0.017641315
-0.097063266 -0.13484131 -0.038046245 -0.16305155 -0.24087602 0.0654975 -0.090540595 0.19672853
0.18774366 0.1717636 -0.18954578 -0.1399899 -0.0605974 -0.0006242697 0.009503153 -0.0075709475
-0.06474733 -0.08379928 -0.081080034 -0.1406274 0.09825941 0.11634977 0.08202784 -0.03237253
-0.216706 -0.0044323895 -0.26861763 -0.12069062 0.04828736 -0.112113796 -0.20463243 -0.23293585
-0.056188565 -0.09150869 -0.17023844 0.028887697 0.07138311 0.005025917 -0.019426389 0.14831617
-0.055579484 0.22432582 -0.14928682 -0.07267779 0.025287395 0.15440285 0.1180458 0.14373355
-0.15008432 0.02922415 0.10286776 0.08772664 0.10429482 0.24530537 -0.12988722 0.2155511
-0.008094066 -0.11888177 -0.011512208 0.045923337 -0.16263995 0.22051616 -0.12224966 -0.113129
0.057985235 -0.15429328 -0.25405392 -0.13723755 0.061719645 0.16941126 0.039473128 0.113387324
-0.05440753 0.15114377 -0.19774689 -0.0025660172 0.060277447 0.120214164 0.07400272 0.08516072
0.009715482 0.2045968 -0.14344898 -0.20842198 -0.17893277 0.18098736 0.14049862 0.026162563
-0.14942272 -0.08982039 0.0076819137 -0.07154131 0.11403441 0.0019660224 -0.18907268 -0.032678533
0.014718282 -0.114574045 -0.101864606 -0.24426211 0.0621837 0.050003413 0.04796707 0.08865487
0.105654396 0.05614202 -0.08405968 0.17582978 0.23834805 0.09696303 -0.17916013 0.016896758
-0.0860382 -0.054875612 -0.1897252 -0.115447156 -0.24224879 -0.07832489 0.22232558 -0.13741747
-0.22681597 -0.098386906 -0.042320985 -0.03764014 -0.23155464 0.088849284 0.036716007 -0.16103369
-0.14958036 0.14136802 0.09212345 -0.03009244 -0.17854472 0.08543459 0.25322288 -0.02416004
0.096052915 0.043729383 -0.025227552 0.05010455 -0.01731178 0.13064665 -0.24797803 0.17184909
-0.19559889 -0.034759082 -0.14878261 -0.0780223 0.0070520476 0.038511917 0.036923103 0.12924589
00000000: 331e 6abe 51ad 5b3d 7943 04be 0bec d2bd
00000010: 762c 87bd 6d5d 323e f133 cf3d 61b5 25bd
00000020: 86a1 cb3d 5f9b da3b 5140 03bd c497 783d
00000030: 79f1 47be 20f8 803d 5c6a 873d e19f 143e
00000040: d1a4 103e 5ffe 803d 0a86 763d a537 14bd
00000050: 0dda 4a3d dd5e 143d 51c3 9cbd 3034 223e
00000060: 4b26 42be 1edd 98bd c8f7 1abb 698d 863d
00000070: 6f55 59be 537e aebd c250 0c3e aa1e 42be
00000080: c422 a9bd af8a 2e3e aa45 a03d 9991 8b3c
00000090: 2d76 9d3d 873c cabd 39dd 46be d517 6cbd
000000a0: 7ba4 8c3c 4068 72be 6311 2ebe 3ff7 6d3d
000000b0: a162 55be cdfe 2a3d 9104 53bd fa93 823e
000000c0: 5e00 1e3c 8486 023e 9372 abbc 2d30 553e
000000d0: 3e73 023e b537 3a3d 9550 13be 4c10 6e3e
000000e0: defe 03be 04f2 dd3d 6f71 27be cb2a 2cbe
000000f0: 812b 20be 9022 083e 1a03 4f3e 948d 483e
00000100: 908d 1ebe 8475 c3bc 9092 873d b50c 1cbe
00000110: f16a 75be bc3f 94bd 4fb4 2bbd 545c 73bc
00000120: 8397 f73c 4210 b73b 9b2b ae3d b3b9 81be
00000130: 6063 ec3d 4fc0 dd3d 99a7 0d3c 8641 033e
00000140: afa1 133e 1c26 723d 8e63 c1bd 9c08 05be
00000150: 0ddd a43d 2a49 1dbb 9e65 16be 618d 353e
00000160: a0f0 5dbe 2bf0 c4ba 761b 5abe 7c59 d7bc
00000170: 5bab 3cbe 5967 453e 865c 0e3e b4e0 dc3b
00000180: 67c3 9ebd db23 8d3c a249 a03d a200 9dbc
00000190: 7632 093e 9ce1 0f3e e74a d6bd 8584 903c
000001a0: 1bc9 c6bd d713 0abe 61d6 1bbd fcf6 26be
000001b0: 34a8 76be 8e23 863d 596d b9bd 3473 493e
000001c0: e03f 403e cce2 2f3e 4a18 42be 8359 0fbe
000001d0: fb34 78bd 08a6 23ba 1db3 1b3c b615 f8bb
000001e0: 409a 84bd f59e abbd 4a0d a6bd a100 10be
000001f0: 3b3c c93d ca48 ee3d 36fe a73d 0f99 04bd
00000200: 2de8 5dbe 943d 91bb 4088 89be a52c f7bd
00000210: f8c8 453d eb9b e5bd 2a8b 51be bc86 6ebe
00000220: fb25 66bd e868 bbbd fc52 2ebe e4a5 ec3c
00000230: 4f31 923d 73b0 a43b 1724 9fbc 32e0 173e
00000240: 50a7 63bd abb5 653e a5de 18be 18d8 94bd
00000250: 8327 cf3c c81b 1e3e ffc1 f13d e32e 133e
00000260: b4af 19be 7c67 ef3c 55ac d23d 06aa b33d
00000270: 8698 d53d 5531 7b3e 2801 05be 6db9 5c3e
00000280: f99c 04bc 4978 f3bd b39d 3cbc 1c1a 3c3d
00000290: 168b 26be fdce 613e 085e fabd 2db0 e7bd
000002a0: ed81 6d3d 0fff 1dbe 5b13 82be 0088 0cbe
000002b0: bdcd 7c3d 257a 2d3e 93ae 213d 9d37 e83d
000002c0: 6eda 5ebd 6fc5 1a3e 297e 4abe a02a 28bb
000002d0: 7ce5 763d d832 f63d bd8e 973d be68 ae3d
000002e0: af2d 1f3c d381 513e 4ae4 12be 926c 55be
000002f0: 273a 37be c054 393e dfde 0f3e df52 d63c
00000300: 4502 19be c1f3 b7bd 90b8 fb3b 4084 92bd
00000310: df8a e93d 62d8 003b 459c 41be edd9 05bd
00000320: f324 713c cca5 eabd 649e d0bd d91f 7abe
00000330: 56b4 7e3d 61d0 4c3d 1e79 443d af90 b53d
00000340: 5561 d83d 2df5 653d 7b27 acbd b90c 343e
00000350: 8311 743e 8e94 c63d c175 37be 126b 8a3c
00000360: cc34 b0bd 40c5 60bd 5347 42be 8f6f ecbd
00000370: 1110 78be cd68 a0bd 51a9 633e 2ab7 0cbe
00000380: 7242 68be 137f c9bd c558 2dbd 8c2c 1abd
00000390: a91c 6dbe 9df6 b53d 8663 163d 04e6 24be
000003a0: 982b 19be c7c2 103e 38ab bc3d 6c84 f6bc
000003b0: 6dd4 36be 55f8 ae3d 6ea6 813e 47eb c5bc
000003c0: 64b7 c43d 951d 333d 03aa cebc 6e3a 4d3d
000003d0: 6fd1 8dbc 3cc8 053e f4ed 7dbe 35f9 2f3e
000003e0: 134b 48be 8a5f 0ebd 785a 18be 28ca 9fbd
000003f0: dd14 e73b acbe 1d3d ae3c 173d 0959 043e

tech_lstm.bias_ih_l0 f4 [128]
0.08664902 0.053302467 -0.016469315 -0.08244003 0.0101415785 -0.09315897 0.20625082 0.08549769
-0.039005376 0.17481074 0.17803253 0.11682974 0.12711617 0.12527174 0.16139053 0.10108777
0.11489075 0.016931027 0.09426529 -0.069929056 0.2083615 0.10364712 -0.05668311 0.19611873
0.09121105 0.16394034 0.1983698 -0.10190646 0.1806473 0.08496294 0.016216945 0.0008894229
-7.593908e-05 0.043572243 0.20927626 0.013941528 0.21975587 0.03234162 0.052995585 0.04159124
0.1306533 0.08922669 0.20926909 -0.022125907 -0.016888456 0.08929827 0.0041174144 -0.10629637
0.08880537 -0.038212735 0.014302523 -0.07518407 -0.0048341774 0.13573503 0.22297317 -0.063646466
0.14349777 0.20928143 0.12210076 0.14199573 0.20085232 0.0974412 0.002903635 -0.120077305
-0.14275207 0.21327037 -0.12606174 -0.026467305 0.04311449 0.07417945 0.079948775 0.036960196
0.12895454 -0.21918428 0.008151018 -0.16871138 -0.25646693 0.1653468 0.15684338 0.2139957
-0.03322052 0.06720514 0.024557367 -0.052766915 0.20902145 0.19714902 0.07366955 0.054295037
0.02378214 0.16267999 0.0045546074 -0.1604042 -0.1678958 -0.020662174 0.16325559 0.09406277
0.13316052 0.19157775 0.11195342 0.20394261 0.19084446 0.21396217 0.13825922 0.21535428
0.12540706 -0.019614566 0.3003644 0.32636937 0.30619493 0.053128522 0.099601 0.022907019
0.29440206 0.28615344 0.012868796 0.04239318 0.009832533 0.14737363 0.29284203 0.20263553
0.1936485 0.2679624 0.031143053 0.07646071 0.063592024 0.04422514 0.24572316 0.142722
00000000: 0b75 b13d b053 5a3d a8ea 86bc 52d6 a8bd
00000010: dd28 263c 21ca bebd 6a33 533e 6a19 af3d
00000020: 1ac4 1fbd 9601 333e 294e 363e 6e44 ef3d
00000030: be2a 023e 3c47 003e 8f43 253e 1b07 cf3d
00000040: d74b eb3d f0b2 8a3c 290e c13d f736 8fbd
00000050: b85c 553e f144 d43d 8c2c 68bd 59d3 483e
00000060: dccc ba3d fadf 273e 7421 4b3e 56b4 d0bd
00000070: 9bfb 383e 0d01 ae3d 66d9 843c 2928 693a
00000080: 7c41 9fb8 cf78 323d 844c 563e 026b 643c
00000090: af07 613e a678 043d e611 593d 935b 2a3d
000000a0: fbc9 053e 7cbc b63d a34a 563e 6441 b5bc
000000b0: a959 8abc 03e2 b63d 60eb 863b e9b1 d9bd
000000c0: 97df b53d f584 1cbd 2155 6a3c 1bfa 99bd
000000d0: 0568 9ebb 20fe 0a3e 1453 643e 1459 82bd
000000e0: 14f1 123e df4d 563e f70f fa3d 5467 113e
000000f0: 3bac 4d3e 408f c73d e94a 3e3b 17eb f5bd
00000100: 992d 12be 8c63 5a3e 5416 01be f6d1 d8bc
00000110: d298 303d 65eb 973d 2fbc a33d 9363 173d
00000120: a90c 043e d871 60be d98b 053c adc2 2cbe
00000130: a24f 83be ac50 293e 8d9b 203e b021 5b3e
00000140: 3d12 08bd d9a2 893d 882c c93c 1f22 58bd
00000150: b809 563e 6fe1 493e 10e0 963d 7964 5e3d
00000160: c3d2 c23c 9595 263e d13e 953b 0041 24be
00000170: e0ec 2bbe b843 a9bc 792c 273e fba3 c03d
00000180: 3b5b 083e f52c 443e d647 e53d 55d6 503e
00000190: bb6c 433e e618 5b3e d393 0d3e d585 5c3e
000001a0: b56a 003e baae a0bc 5dc9 993e e319 a73e
000001b0: 95c5 9c3e 4b9d 593d 9cfb cb3d 80a7 bb3c
000001c0: debb 963e b482 923e a4d7 523c 79a4 2d3d
000001d0: a218 213c 1de9 163e 64ef 953e b07f 4f3e
000001e0: cb4b 463e 5e32 893e b71f ff3c 6f97 9c3d
000001f0: 893c 823d 6c25 353d da9e 7b3e b725 123e

tech_lstm.bias_hh_l0 f4 [128]
0.1581511 0.12987012 -0.085847415 0.0040637013 0.05006502 -0.013956555 0.1227262 -0.12284776
0.100700215 0.21232896 -0.037984572 -0.016468177 0.230175 0.19617955 0.23516192 0.1561618
0.19803698 0.038799696 0.027253438 0.09614687 0.09645944 0.18046233 -0.060647104 0.1700778
-0.07674341 0.07720728 -0.05385637 -0.10406414 0.22374874 -0.14871956 0.01864618 0.114961825
0.23405787 0.17387883 -0.07108989 0.1972261 -0.020163842 -0.06685532 -0.0657191 0.22161883
0.08112907 0.19235653 0.16985147 -0.07069213 0.14477189 0.12621485 0.19041117 0.20539863
-0.11399661 0.0009853014 -0.0008738712 -0.0065769083 0.07357666 -0.10635832 -0.044078864 0.15086082
-0.06335394 -0.0065741967 0.15560627 0.19702317 0.19241892 0.15591411 0.13252595 -0.10678727
-0.05592996 0.065152824 0.04094813 -0.20558856 -0.04030656 -0.002580678 -0.09518293 0.10042547
-0.039498042 -0.018838586 -0.19329487 -0.13098298 0.0052761044 0.22694717 0.17326416 0.040723406
0.12156828 -0.05761646 -0.18144041 0.041046627 0.090930656 -0.07296363 -0.2068476 0.23179562
-0.14818825 0.033206087 -0.11360206 -0.20087846 -0.10256041 0.10168162 0.19534193 0.041370932
0.008275295 -0.016373506 -0.015549714 -0.027581798 0.009388097 0.24751106 0.008190612 0.19563085
0.29000443 0.12259153 0.27620283 0.26026687 0.29962152 0.24024911 0.059824444 0.3171802
-0.0015408163 0.109895594 0.057629533 -0.033009343 0.19225249 0.10708924 -0.004478546 0.26020294
0.14408904 0.29185295 0.19040067 0.31553912 0.112192325 0.019141525 0.06966286 0.16723312
00000000: 5df2 213e acfc 043e c5d0 afbd cc28 853b
00000010: fa10 4d3d 09aa 64bc e057 fb3d 9b97 fbbd
00000020: ea3b ce3d c36c 593e b695 1bbd 45e8 86bc
00000030: ffb2 6b3e 4be3 483e 49ce 703e e1e8 1f3e
00000040: 35ca 4a3e 6eec 1e3d 9a42 df3c a6e8 c43d
00000050: 878c c53d 1ecb 383e 1969 78bd e028 2e3e
00000060: a62b 9dbd da1e 9e3d 7f98 5cbd 941f d5bd
00000070: 641e 653e f149 18be e0bf 983c 1b71 eb3d
00000080: deac 6f3e 4b0d 323e 9497 91bd a4f5 493e
00000090: a42e a5bc 71eb 88bd bc97 86bd 0cf0 623e
000000a0: ff26 a63d 1cf9 443e 8bed 2d3e 09c7 90bd
000000b0: 153f 143e 773e 013e 25fb 423e 0554 523e
000000c0: 0e77 e9bd 3b25 813a 8114 65ba 1b83 d7bb
000000d0: 5caf 963d 64d2 d9bd 0a8c 34bd 427b 1a3e
000000e0: b6bf 81bd 5c6c d7bb 4057 1f3e 71c0 493e
000000f0: 7709 453e f3a7 1f3e e2b4 073e 49b3 dabd
00000100: d016 65bd d86e 853d 3ab9 273d cf85 52be
00000110: 7e18 25bd 9820 29bb 45ef c2bd deab cd3d
00000120: b3c8 21bd 6153 9abc 17ef 45be 6720 06be
00000130: 2ce3 ac3b d764 683e 296c 313e 96cd 263d
00000140: caf8 f83d 3dff 6bbd 84cb 39be 8220 283d
00000150: da39 ba3d f56d 95bd dbcf 53be d55b 6d3e
00000160: a9be 17be 1b03 083d 32a8 e8bd 15b3 4dbe
00000170: 310b d2bd 743e d03d b707 483e 9174 293d
00000180: 1a95 073c bb21 86bc 3ac4 7ebc 39f3 e1bc
00000190: 88d0 193c 8a73 7d3e eb31 063c 7453 483e
000001a0: 767b 943e 4511 fb3d 756a 8d3e b341 853e
000001b0: fe67 993e dd03 763e 7a0a 753d 7165 a23e
000001c0: 37f5 c9ba f110 e13d f20c 6c3d ce34 07bd
000001d0: d6dd 443e 9a51 db3d c4c0 92bb 5239 853e
000001e0: 148c 133e c06d 953e 65f8 423e 588e a13e
000001f0: 17c5 e53d b0ce 9c3c 67ab 8e3d 293f 2b3e

fund_dense.0.weight f4 [16, 4]
-0.07580531 -0.43273413 0.49993956 -0.1128732 0.21598566 -0.14462692 -0.41499645 -0.45723528
0.20904344 -0.082653046 0.053974688 -0.38385648 -0.21332282 0.2470051 -0.44475508 -0.4883247
-0.10247177 0.25283223 -0.027062058 0.18765587 -0.08582193 -0.2747522 0.43624747 -0.33983046
-0.21828192 0.30708116 -0.45466894 -0.15250504 -0.27649087 0.081407964 0.01636666 -0.11621809
-0.056833625 -0.3221985 0.4678372 -0.20095927 -0.17596275 -0.065989435 0.35822982 -0.4856897
-0.21805847 0.4671592 -0.37697864 -0.20581442 0.13643813 0.48454177 0.21272051 -0.04663056
0.3161865 0.047915578 0.24487776 -0.41868627 0.28120667 -0.20937258 -0.06947541 0.44157535
-0.06318176 -0.17536396 -0.37484342 0.39928275 -0.37525278 0.4347093 0.16754794 0.12760866
00000000: d03f 9bbd 548f ddbe 14f8 ff3e 102a e7bd
00000010: 582b 5d3e 1419 14be 6a7a d4be be1a eabe
00000020: 7c0f 563e 0046 a9bd 9014 5d3d d688 c4be
00000030: 4c71 5abe e8ee 7c3e f0b6 e3be b205 fabe
00000040: b8dc d1bd 3a73 813e 40b1 ddbc dc28 403e
00000050: 68c3 afbd 52ac 8cbe d45b df3e 42fe adbe
00000060: 4c85 5fbe be39 9d3e 5eca e8be 482a 1cbe
00000070: 3690 8dbe 38b9 a63d 6013 863c c003 eebd
00000080: 60ca 68bd 34f7 a4be 5c88 ef3e 44c8 4dbe
00000090: 942f 34be 7825 87bd e669 b73e 52ac f8be
000000a0: b84a 5fbe 7e2f ef3e 5803 c1be 04c1 52be
000000b0: 70b6 0b3e dc15 f83e 68d3 593e b0ff 3ebd
000000c0: 32e3 a13e 2043 443d 3cc1 7a3e 0c5e d6be
000000d0: 52fa 8f3e c465 56be 2049 8ebd 2a16 e23e
000000e0: 7065 81bd 9c92 33be 7aeb bfbe ca6e cc3e
000000f0: 2221 c0be 3892 de3e b091 2b3e d8ab 023e

fund_dense.0.bias f4 [16]
-0.28901023 0.9536139 -0.1618793 -0.2604062 -0.12925798 -0.022862792 -0.3808095 0.81498975
0.94677705 0.8207706 -0.028876543 -0.1994108 -0.14617765 0.62008 -0.010229251 -0.013565123
00000000: 26f9 93be 0a20 743f b0c3 25be f653 85be
00000010: 345c 04be c04a bbbc 76f9 c2be 2ba3 503f
00000020: fb5f 723f 061e 523f 808e ecbc 5832 4cbe
00000030: 98af 15be 90bd 1e3f 9798 27bc 4040 5ebc

combined.weight f4 [1, 48]
-0.49918577 0.5406812 -0.5382057 -0.4831963 -0.53203034 0.43722132 -0.56008816 -0.46526283
-0.46480554 -0.52074426 -0.5772216 -0.5607046 -0.46535084 0.44761887 0.4644992 0.4825015
0.49237156 0.46983737 -0.4138802 0.5421443 0.50236833 0.43905154 -0.47209933 0.5765096
-0.36831436 0.44442862 -0.5896585 -0.47245052 -0.5524774 0.51905465 0.5035124 0.39224246
0.038085952 0.4614583 0.083274364 0.0076966137 -0.09015557 0.10684699 0.09247467 0.5601377
0.5329555 0.41301435 -0.14353913 -0.09660691 0.12929231 0.61759156 -0.088915914 -0.09040135
00000000: 4795 ffbe 156a 0a3f d9c7 09bf 8165 f7be
00000010: 2433 08bf 79db df3e f061 0fbf ee36 eebe
00000020: fefa edbe 7f4f 05bf cbc4 13bf 568a 0fbf
00000030: 7742 eebe 4d2e e53e d7d2 ed3e 700a f73e
00000040: 2018 fc3e 868e f03e 1be8 d3be f8c9 0a3f
00000050: 369b 003f 5dcb e03e 01b7 f1be 2296 133f
00000060: b393 bcbe 268c e33e dcf3 16bf 09e5 f1be
00000070: 296f 0dbf c4e0 043f 30e6 003f 01d4 c83e
00000080: 0400 1c3d 4344 ec3e c08b aa3d e033 fc3b
00000090: 7ca3 b8bd 98d2 da3d 5c63 bd3d 2f65 0f3f
000000a0: c66f 083f 9e76 d33e ecfb 12be d8d9 c5bd
000000b0: 3465 043e 7b1a 1e3f 8c19 b6bd 5824 b9bd
