models/hybrid_model_CELH.pth (torch, 24947 bytes, 7 tensors)

tech_lstm.weight_ih_l0 f4 [128, 8]
000000 10 bd b3 3d 00 a5 63 3e 7f 53 13 3e 79 c1 2f 3c
       0.08776295 0.22230911 0.1438732 0.01072728
000010 e5 46 e5 3d 19 8c a0 bb 1c 49 a1 3d d7 bd b7 3b
       0.11195163 -0.0048995134 0.07875273 0.0056073475
000020 38 6a 7d bc e9 57 28 3e 20 ec b5 bc 63 52 93 3d
       -0.015467219 0.16439785 -0.02220732 0.071934484
000030 bd 1e f5 3d 0d 0e 2a 3e 15 70 69 bd dd 23 87 3c
       0.119687535 0.16606922 -0.056991655 0.016496593
000040 79 8c fe 3d 34 37 d2 bc 99 01 18 3e 83 3e 12 3e
       0.12429137 -0.025661089 0.1484436 0.14281659
000050 62 9e b0 3c a1 35 6f 3e df 6c 4f be 81 97 98 bd
       0.021559898 0.23360302 -0.20256375 -0.07450772
000060 f9 6e 1a be 64 13 35 be 15 bd 4e bc f2 9b 66 bd
       -0.15081395 -0.17683178 -0.012618323 -0.056301065
000070 28 58 b8 bd e5 2a fb 3c 58 f8 5e bd f4 0f a8 3d
       -0.090011895 0.030660102 -0.054436058 0.08206168
000080 6e 3b 00 bd ac 41 16 3b 6f 47 05 bc 37 81 64 3e
       -0.031306677 0.0022927327 -0.008134707 0.22314917
000090 0f 9f c3 ba c4 d0 90 bc 97 b0 c1 3a 5b ea 56 3e
       -0.0014924722 -0.017677672 0.0014777359 0.20987837
0000a0 db 29 d9 bd 5a a6 ca 3d cb 45 75 3d 86 0a 0f 3e
       -0.106036864 0.0989501 0.059881013 0.13968858
0000b0 a1 e5 df 3d eb 67 f0 bd b6 00 73 3c 39 93 b1 3d
       0.1093247 -0.11738571 0.0148317125 0.086706586
0000c0 7d 21 59 be eb f0 a7 bd e5 f7 ac 3d 43 af 06 be
       -0.21204181 -0.08200248 0.0844572 -0.13152795
0000d0 6e 79 7a 3d d5 62 c1 bb 30 44 09 3e 63 6e 9d 3d
       0.06115096 -0.0059016743 0.13404918 0.0768707
0000e0 66 f5 27 3e f9 fa e4 bd ef 8e 40 bd ba 01 22 3e
       0.16402206 -0.11180682 -0.047011312 0.15820971
0000f0 80 84 8a 3d 68 83 50 3d 27 b7 04 3e 30 89 9b bd
       0.067635536 0.05090657 0.12960492 -0.07594526
000100 b3 6f 59 bd 9b db 86 bc 51 84 34 3e 81 f3 fd 3d
       -0.05308504 -0.016462138 0.176286 0.1239996
000110 a1 36 ed bd 5d 75 12 3e 33 b6 6e bd 47 a6 81 bd
       -0.11582685 0.14302583 -0.058279227 -0.06330543
000120 d9 f4 46 be 67 4f 90 3d 05 b3 ec 3c dd 1c ab bc
       -0.1942934 0.07046395 0.028893957 -0.020887787
000130 5c 13 f4 3d 7c 91 a3 3d 5e 17 71 be 23 49 e8 3c
       0.11917755 0.07986733 -0.2354407 0.028355187
000140 a4 82 8f 3d 9d 15 c3 3d 76 0f 43 bd 84 fd ee 3d
       0.070073396 0.09525607 -0.047622167 0.11669448
000150 01 56 9d 3d 78 67 d8 bd 69 fc 9e 3d ad d7 a5 3d
       0.076824196 -0.1056661 0.07762987 0.080977775
000160 58 f5 5f 3e 85 36 d0 3c 39 e8 de 3d dd fc e9 bb
       0.21870935 0.025416622 0.10884137 -0.0071407394
000170 bd 6e 0f bc 6f 89 00 3b 85 4f 81 3d 8a 82 bf 3d
       -0.008754429 0.0019613167 0.06313995 0.0935107
000180 94 4b b8 3d 86 05 38 3d de a0 4f 3c 19 bd 30 3e
       0.089987904 0.044927143 0.012672631 0.17259635
000190 be 29 09 3e fa 8f e9 bd 39 cf b0 3c 9f d4 41 3e
       0.1339483 -0.114044145 0.021583186 0.18928765
0001a0 cd e8 d5 bd a3 19 0c be 68 00 38 3c 05 e8 77 3e
       -0.10444794 -0.13681655 0.011230566 0.24209602
0001b0 38 e0 81 3d 93 3b 4e 3e 3f c8 2d be 4c a3 bc bd
       0.063415945 0.20139913 -0.16970919 -0.09210834
0001c0 11 42 d3 ba ac 2c 98 bd 50 55 31 3e c2 0d 21 bd
       -0.0016117712 -0.074303955 0.173177 -0.03931976
0001d0 be ef 1a 3e 0c 56 da bd 79 97 27 bd 47 da 6b bd
       0.15130517 -0.106609434 -0.04091594 -0.057581212
0001e0 de d7 91 3d c4 74 d1 3d 7a bf 14 3e d0 43 1e 3c
       0.071212515 0.102273494 0.14526168 0.009659722
0001f0 8e ed 6d bd 0c ba d0 bd ac 47 08 3e 31 f5 fe bc
       -0.058087878 -0.101917356 0.1330859 -0.031122776
000200 9a 56 41 3e 28 4c c9 3c 3e 22 d3 3d 3c be 04 3e
       0.18880692 0.024572447 0.103092656 0.12963194
000210 2a 93 e4 3c 5e 95 41 3e ce f3 9b 3d a1 51 c5 3d
       0.027902205 0.18904635 0.076148614 0.0963471
000220 02 79 c6 3d 5e 38 eb bd 2c fa 1e bd 14 14 e9 3c
       0.09691049 -0.114853606 -0.0388128 0.028451957
000230 71 0b 10 3e a3 ec 11 3e a9 73 21 be 01 d1 0a be
       0.14066865 0.14250426 -0.15766777 -0.13556291
000240 f8 5e c5 3d d6 35 ab 3d 66 80 0c 3e 1e a4 a2 bd
       0.096372545 0.08359878 0.13720855 -0.07941459
000250 d7 93 4b bd 99 19 61 bb b3 6f 2a be bc 07 a1 bd
       -0.049701538 -0.0034347533 -0.16644172 -0.07862803
000260 02 1b 50 3e f6 81 00 3e 12 01 a3 3c 6c fd 0a 3e
       0.20322803 0.12549576 0.019897971 0.13573235
000270 fc 25 40 3e 89 92 38 3e a1 7d e7 bc 69 fa f8 bd
       0.1876449 0.18024649 -0.028258147 -0.12157137
000280 25 a9 d0 3c b5 be e1 3d b6 8f 16 bd dc e8 25 3e
       0.02547128 0.110227026 -0.036758147 0.1620211
000290 59 78 22 be 9b 83 f3 bd 6f 45 77 bd ab 77 43 3d
       -0.15866221 -0.11890336 -0.06036895 0.047721546
0002a0 89 d4 f1 3d 13 81 39 3c ae dc a9 3d f6 54 50 3e
       0.11808116 0.011322278 0.082940444 0.2034491
0002b0 59 0d 9e bd a2 05 81 3d c9 fa 31 be 8b 69 07 3d
       -0.077173896 0.062999025 -0.17380823 0.033059638
0002c0 44 74 f4 3c 9b 66 d0 3d bd 2c 11 3e 4d d5 ca 3d
       0.029840596 0.101758204 0.14177223 0.09903965
0002d0 05 2b 2d be 33 2f 16 bc ea 5e e9 3d 06 a0 fb 3d
       -0.16910942 -0.009166527 0.113950565 0.122863814
0002e0 84 5e 55 3b 27 26 33 be b1 e0 c8 3c 65 ea 5a 3e
       0.0032557556 -0.17495023 0.024521204 0.21378477
0002f0 b9 d2 d2 bd 76 d8 f4 3d 03 40 9a bd db 5e 2c 3d
       -0.102940984 0.11955349 -0.075317405 0.04208265
000300 da 08 e2 3d 66 e6 e7 3d 6a ed 2a 3b c3 1a 4c 3e
       0.110368446 0.11323242 0.0026081451 0.19932084
000310 81 a4 cc bd cc dd cf 3d ea f8 41 3d 44 e3 b1 3d
       -0.09992314 0.10149726 0.047356524 0.086859256
000320 03 88 94 3d 10 46 55 3e a1 c9 51 bd 2b c8 29 3e
       0.07252505 0.20827508 -0.05121768 0.16580264
000330 e7 4d 82 3c 5a f1 2e 3e 27 a3 08 3e b2 9d 87 3d
       0.015906287 0.17084256 0.13343488 0.06621875
000340 11 b6 eb bd bb 5d 32 be 5b d4 90 3d e0 bd 25 3e
       -0.11509336 -0.17418568 0.070717536 0.16185713
000350 17 51 8c bc 36 a1 7f bc 83 1b 20 be 74 8e f9 39
       -0.01712851 -0.0156024005 -0.15635495 0.00047599117
000360 45 76 06 bd 12 41 a1 bd e1 69 20 bd 46 6c 00 3e
       -0.032827634 -0.07873739 -0.039163474 0.12541303
000370 51 7c 50 be cc 7b 40 3e 6e 1d 52 bd 9a de 83 3d
       -0.20359923 0.18797225 -0.051297598 0.06438942
000380 79 6c a5 ba c6 70 12 3d 9a 95 d0 bd 21 d9 92 3d
       -0.0012620828 0.03575208 -0.10184784 0.0717032
000390 e5 f0 20 bb 14 ff 13 bd 1a e0 3b 3e c6 9d f1 3d
       -0.0024557647 -0.036131933 0.18347207 0.11797671
0003a0 9d 8d 0e bd 7f 8c 0a 3e fd 4e a7 bd 4c 03 38 3e
       -0.03480302 0.13530158 -0.08169363 0.17970008
0003b0 8f e9 a8 3d fc 81 64 3e 15 97 54 3d 79 1b f6 3c
       0.08247673 0.2231521 0.051901896 0.030042397
0003c0 b9 0f 1d bc 8d 62 53 bb fc f3 99 bb 23 78 96 bd
       -0.009586268 -0.0032254786 -0.0046982747 -0.07347133
0003d0 a1 3c ea b9 50 29 90 bd 6e 75 c9 bc 11 f7 67 be
       -0.0004467713 -0.0703913 -0.024592128 -0.22652842
0003e0 67 f6 1b 3e 67 06 86 bd f5 7d b3 bc 01 cd 55 bd
       0.15230714 -0.0654419 -0.021910647 -0.05219746
0003f0 30 43 9b bd ea df b1 bd 65 aa 17 3d a4 9c db 3b
       -0.075811744 -0.08685286 0.037027735 0.0067020226

tech_lstm.weight_hh_l0 f4 [128, 32]
000000 ae 3e df bd 02 64 49 bd f9 61 61 bb 8b a2 c0 3d
       -0.10900627 -0.04916764 -0.0034390672 0.094060026
000010 8a 0e 1a 3d 5d 94 ec bd fd 50 33 3d 6b 7a 0d 3e
       0.03761152 -0.115517356 0.04377841 0.1381623
000020 d2 0b 81 bc 71 37 b0 bd 9f 22 5c be ca 2b 80 bd
       -0.015752707 -0.086043246 -0.21497582 -0.06258352
000030 5a 45 e8 ba 8e c8 1a 3d 42 5e 41 bd 99 86 0e 3e
       -0.0017720864 0.03778892 -0.047209032 0.13918532
000040 86 a6 6c 3e 00 e9 10 be 20 2c 19 be 96 80 30 3e
       0.23110399 -0.14151382 -0.14958239 0.17236552
000050 22 97 4c 3e df 59 41 3d a8 5b 02 3e fe c6 87 bd
       0.19979528 0.04720485 0.12730277 -0.066297516
000060 83 8d be 3d 16 19 13 be 46 b3 be 3d ff da c1 bd
       0.09304335 -0.14365038 0.093115374 -0.09465598
000070 28 58 58 3e d9 1f 29 3e c5 c9 75 3d ce c0 44 bd
       0.21127379 0.16516055 0.060006876 -0.048035435
000080 bb 4a 98 bd 3d 72 2d 3e 18 e9 e2 bd fd 1d f3 bd
       -0.07436129 0.1693811 -0.11079615 -0.11870954
000090 f4 32 71 be c1 5f 65 bd ed eb 14 be 45 aa 5e 3e
       -0.23554593 -0.05599952 -0.14543124 0.2174464
0000a0 d5 32 d7 3d b0 7e 06 3c c3 9d b4 bd 8d 47 d6 bd
       0.10507742 0.008208916 -0.08819153 -0.10462866
0000b0 b2 72 24 be d1 7c 2e 3d 48 44 c1 bc c4 ac 84 bd
       -0.16059378 0.042599503 -0.02359213 -0.06478265
0000c0 04 40 ef 3d ee 42 4f bc 03 81 40 3c 51 ee 1a bd
       0.11682132 -0.012650235 0.011749509 -0.037824932
0000d0 46 b1 b3 bb b1 dc 56 3e c9 ce 2c bd 80 d9 ec 3c
       -0.005483779 0.20982625 -0.042189393 0.028912306
0000e0 5a fe 87 3d ac a2 f9 bd ef 87 b4 3d ea 29 b7 bd
       0.066403106 -0.1218923 0.0881499 -0.08943541
0000f0 ae de 7e 3e a8 6c 73 3e 94 8c 25 be 19 39 39 be
       0.24889633 0.23771918 -0.16166908 -0.18088187
000100 ba 92 d5 bd b1 d9 cf bc 28 f0 e7 bd 47 2a 7a 3e
       -0.104283765 -0.025372358 -0.11325103 0.2443019
000110 05 17 dd 3d 41 26 38 3c 1b df 03 be aa f0 f9 3b
       0.10795406 0.011239589 -0.12878077 0.0076275663
000120 9d 10 bb 3d 0b 91 33 3d f0 8e ae bd e4 94 b2 3d
       0.09134028 0.043839496 -0.08523357 0.08719805
000130 f6 8d e2 bd 9c 65 2b 3e ce 71 ca bd 47 9c df 3c
       -0.11062233 0.1673798 -0.09884988 0.027296199
000140 11 dc 1a bd a5 7f 7b be 87 5b a3 3d af a8 9c 3c
       -0.037807528 -0.24560411 0.07976442 0.019123403
000150 46 4f 49 3e 38 1a ce bc a3 fa 2a be a7 38 47 3e
       0.19659147 -0.025158986 -0.16697173 0.19455205
000160 a7 72 25 3d 90 fd b1 3d e7 28 a0 3d fe 34 24 be
       0.040392544 0.08690941 0.078203015 -0.1603584
000170 ee 0c 1c bd 1c c3 57 bd 72 0f 59 be 87 2b e3 bd
       -0.03809827 -0.052676305 -0.21197298 -0.110922866
000180 16 82 62 3d 92 26 c6 bd 95 c0 dd 3d cd 7e 27 3e
       0.05529984 -0.096753255 0.10827748 0.16356964
000190 1d 4d 29 be 97 de de 3d 8a eb 9b 3d 84 c9 54 bd
       -0.16533323 0.108822994 0.07613285 -0.051949993
0001a0 f7 f7 14 bd e2 4c 61 3d ef 53 0b be 6b d3 fd 3d
       -0.03636929 0.05500496 -0.13606237 0.123938404
0001b0 37 70 c5 3d df 63 1b 3e f1 4b 0e be 0a 8a 4b 3e
       0.09640544 0.15174817 -0.13896157 0.19876876
0001c0 df 02 f6 3c 97 5b e9 bb ca 30 5b be 6b be 59 3e
       0.030030666 -0.007121514 -0.2140533 0.21264045
0001d0 fe 25 18 3e 03 72 09 bd 7f 25 27 3d 94 e8 98 3d
       0.14858243 -0.033555996 0.040807243 0.07466236
0001e0 b2 a0 36 3e b4 9a 24 3d 10 b1 56 be 8b 1f 0e bd
       0.17834738 0.0401866 -0.20965981 -0.03469805
0001f0 44 d9 63 bd dd 11 5c bc bb 79 fb 3c cb a4 23 be
       -0.055627123 -0.013431993 0.030697694 -0.15980832
000200 2b be 66 be c2 52 63 3e e1 1b 4d 3d 06 ac 20 be
       -0.22533481 0.22199538 0.050075416 -0.15690622
000210 ee 37 02 3d ed 68 b3 3c 8a b7 e2 bd a2 bc 57 3d
       0.03179162 0.021900618 -0.110701635 0.05267013
000220 e2 cc 56 3e 33 4d fc 3d 09 ae 27 bd ef ed f1 bd
       0.20976594 0.12319412 -0.040937457 -0.1181296
000230 15 85 12 bd ac f5 a8 bd 02 68 53 be fa 5a a7 3d
       -0.03577145 -0.08249983 -0.20645145 0.08171649
000240 bc ce 61 3e 37 f1 8f 3d c6 30 7f be 7e ac 52 bc
       0.22051519 0.0702843 -0.2492095 -0.012858508
000250 6d cf 0e 3e 5e cf eb 3d b0 92 5b 3e b1 ae bb 3d
       0.13946314 0.115141615 0.21442676 0.09164179
000260 62 e6 e4 3c 68 02 35 be c1 1b 5d be e7 f8 8c 3d
       0.027941886 -0.17676699 -0.21592619 0.06883412
000270 c2 16 41 3e b3 e0 6a 3e 8c 47 c2 bd b6 df 0a be
       0.18856338 0.22937278 -0.09486303 -0.13561901
000280 9f 8f 09 3e 83 65 85 bd 8f b0 fb bd f8 02 59 3e
       0.13433693 -0.065135024 -0.12289535 0.21192539
000290 66 8a 47 3d 15 cf 4b 3e 3f 08 51 bb 1e dd de bd
       0.04871597 0.19903214 -0.0031895784 -0.108820185
0002a0 d0 5a 0b bc 4f bc b5 3b ee 75 88 3d 25 95 95 3d
       -0.008505538 0.00554613 0.06663118 0.07303838
0002b0 53 70 d7 bb 92 07 21 3d 63 24 00 be d0 f7 c5 3d
       -0.0065746694 0.03931386 -0.1251388 0.09666407
0002c0 a0 71 2c 3e 39 f5 c9 3d 96 91 12 be c5 2a 4c 3a
       0.1684022 0.09861226 -0.14313349 0.00077883556
0002d0 2b 18 24 3e 27 22 f7 bc 24 19 3c 3d 7c d1 6f 3e
       0.16024844 -0.030167652 0.045922413 0.23419756
0002e0 36 6a 2b 3e 26 28 4d bd 4d ac a0 3d b8 6d 19 3e
       0.16739735 -0.050087117 0.07845364 0.1498326
0002f0 88 7a 1e bd 68 ef 3f 3d 6c 28 0e be 3d c5 4f be
       -0.038691074 0.046859175 -0.13882607 -0.20290084
000300 22 cf 0d 3d ac 00 41 3e 3f bf b7 bb 1f a2 d7 3d
       0.034621365 0.18847913 -0.005607515 0.10528969
000310 ea 47 bb 3c cf dc 36 be 6f c2 cd bc a4 5d 21 3e
       0.02286144 -0.1785767 -0.025117127 0.15758377
000320 02 84 01 be 9b b9 a8 3b e1 3b 65 be 9b 94 81 3d
       -0.12648013 0.005149079 -0.22386123 0.06327172
000330 f2 99 2e be 22 94 8f 3c c2 f0 3b be 2e 69 a7 3d
       -0.17050913 0.01752669 -0.1835356 0.08174358
000340 f0 34 24 3d da 4f 42 3d 9d bb 79 be 6e ab 7d 3c
       0.040089548 0.047439434 -0.24387975 0.015482767
000350 aa 25 1f 3e 5b fc 2d 3e ec c8 b2 bd 2c 99 7d 3c
       0.15541711 0.16990797 -0.08729729 0.015478414
000360 45 23 1b 3e f2 94 82 be 79 ea 0d 3d 8b e2 07 ba
       0.15150173 -0.2550426 0.03464744 -0.0005183599
000370 6f 17 f7 3d 02 8f 81 3e f2 23 cb bb c3 f4 43 be
       0.120650165 0.2530442 -0.0061993534 -0.19136338
000380 a8 e6 ae bd fe 5d c5 bd 0c 3b d0 bd 22 4b 04 3d
       -0.08540088 -0.09637068 -0.10167512 0.032298215
000390 bb 3f 01 be c8 3f 96 bd 09 48 58 bc b9 b5 2c 3e
       -0.12621967 -0.07336384 -0.013200768 0.16866197
0003a0 06 c7 65 bc 19 d9 25 3e 8b 06 32 bd 97 63 c5 3d
       -0.014024502 0.16196097 -0.04346327 0.09638136
0003b0 df 01 55 be 59 7c 16 3c f8 72 8d bc ca 84 c0 3d
       -0.20801495 0.00918492 -0.017266735 0.094003275
0003c0 69 2e 34 3d a1 c6 0c be e9 92 ca 3d 29 90 04 bd
       0.043989573 -0.13747646 0.09891302 -0.032364044
0003d0 f7 c7 a4 3d 8d e6 c6 3d fd 1e d2 b9 1c 8d 00 be
       0.08045953 0.09711943 -0.0004007741 -0.12553829
0003e0 4d e9 0f be 85 be db bd c1 f1 2f 3d e3 54 91 3c
       -0.14053841 -0.10729698 0.042955164 0.017740672
0003f0 5f 11 b0 3d ae 16 00 3e 66 59 a6 bd 05 b2 06 be
       0.08597063 0.12508652 -0.0812252 -0.13153847

tech_lstm.bias_ih_l0 f4 [128]
000000 57 8e 33 3e 4a 5d eb 3c ad a6 06 3e a8 a3 50 3e
       0.17534767 0.028731007 0.1314952 0.2037493
000010 6e 46 8b bd 8a 68 06 3c eb dd 80 3d 5c eb 8b 3d
       -0.06800543 0.008203635 0.062923275 0.068320006
000020 fc c3 09 3e a6 89 9b bd a1 68 76 3e 62 f0 97 3d
       0.13453668 -0.07594614 0.2406335 0.07418896
000030 64 b3 5c 3c 96 29 f2 3d 7a 80 cb bd 27 26 a7 3d
       0.013470504 0.11824338 -0.09936614 0.08161574
000040 46 87 48 3e 34 31 e1 3c a8 16 1a 3e 83 6a fd bd
       0.19582853 0.027489282 0.15047705 -0.12373831
000050 34 4c 75 bd e1 44 86 bd 8e ff 3c 3d f1 46 2f 3b
       -0.059887126 -0.06556106 0.046142153 0.0026745165
000060 6b f9 e0 3d 93 df f7 3b 9a f6 9c bd 5e 99 54 3a
       0.10985073 0.007564494 -0.07664223 0.00081100117
000070 d3 34 24 3e 0c e0 b3 3d b0 11 d0 3d c3 cb 96 bc
       0.16035776 0.08782968 0.101596236 -0.018407708
000080 08 17 2b 3e ba b1 49 3e ad 79 67 3d e5 ba 2d 3e
       0.16708004 0.19696704 0.056512523 0.16965826
000090 fc 8d 7a bd eb 75 7b bd d1 a3 49 3e 1c f4 0f 3e
       -0.061170563 -0.061391752 0.19691397 0.14057964
0000a0 c4 0f 28 3e fb 41 5d 3d 6b e9 6e 3e 91 6c 8d 39
       0.16412264 0.054018002 0.2333123 0.00026974504
0000b0 78 71 0a 3e ac df fe 3d 9d 8a ef 3d 9b ae 0f 3e
       0.13519847 0.12445006 0.1169636 0.1403145
0000c0 b5 42 47 3e bc 4e a2 bc 8a 2c 25 3e 14 a0 0b be
       0.1945904 -0.019812934 0.16130272 -0.13635284
0000d0 55 d6 39 3c da 84 a8 bc e3 10 63 bc 5a 13 26 bd
       0.011342605 -0.020571161 -0.013859007 -0.0405458
0000e0 e7 36 eb bd 12 50 a1 3d da a3 68 bd fb 03 59 3d
       -0.11485081 0.078766 -0.056796886 0.05298231
0000f0 c8 e8 cd bc f0 a2 42 3e e5 a8 5a 3d 0a e7 84 3d
       -0.025135413 0.19007468 0.053383727 0.0648938
000100 c1 88 96 bd 3e c9 69 bd a1 f2 3b be 40 c6 28 bd
       -0.073503025 -0.057076685 -0.18354274 -0.04120469
000110 45 70 85 bd b9 4c ed 3d 69 e6 ba bd 56 a1 5e 3d
       -0.06515554 0.11586899 -0.091259785 0.05435308
000120 e0 b1 68 bb 32 01 4f 3d fa 70 9d 3d ec 18 3a be
       -0.0035506412 0.05053825 0.07687564 -0.1817357
000130 ec d1 bb 3c 70 15 1b 3e ed 96 14 3d 8b e2 19 3e
       0.022927247 0.15144897 0.036276747 0.15027826
000140 93 f7 70 bd 0c 5b fd bd 9f 46 01 be 9e 78 f2 bd
       -0.058829855 -0.123708814 -0.12624596 -0.11839412
000150 2d 52 c8 3d cd 6a 82 3d 9a 19 e1 3d 52 3b b4 3d
       0.09781299 0.06368027 0.10991211 0.08800377
000160 9d 06 f6 3d 5c be a1 3c 5c 2a 5f be ee 1c 25 3c
       0.1201298 0.01974409 -0.21793503 0.010077698
000170 92 17 12 3d 37 b4 d9 3d cd 5b 0c be bd bf 88 bc
       0.03566701 0.106300764 -0.13706894 -0.01669299
000180 a3 a5 94 3d 75 9e b5 3d 36 06 a9 3e ed f1 4e 3d
       0.07258155 0.08868114 0.3301255 0.050523687
000190 d3 31 7e 3e e7 85 bd 3d f6 1a 91 3e a3 87 9e 3d
       0.24823694 0.092540555 0.28340882 0.077407144
0001a0 93 21 60 3e 2b 12 ae 3d d2 1a 60 3e 79 82 4d 3c
       0.21887808 0.08499559 0.21885231 0.012543314
0001b0 35 62 ac 3d 3b 38 24 3e d3 37 31 3e 6e 70 98 3c
       0.08417169 0.16037075 0.17306451 0.018608298
0001c0 fe f4 eb 3d e7 7a 87 3e d0 7d 70 bc 0d 32 1c 3e
       0.11521338 0.26460955 -0.014678434 0.15253468
0001d0 da 18 6e 3e 28 ce 00 bd 86 79 a2 3e 7a d0 90 3e
       0.23251668 -0.031446606 0.3173334 0.28284055
0001e0 08 88 e0 bc 5c 83 30 3e 35 0f 1b 3e c9 e6 4b 3e
       -0.027408615 0.1723761 0.1514252 0.19912256
0001f0 a1 e0 2a 3e b5 fb 30 3e 0d c1 a4 bb 7f a0 82 3e
       0.16687252 0.17283519 -0.0050278963 0.25513074

tech_lstm.bias_hh_l0 f4 [128]
000000 80 e0 8f 3d 66 20 58 bc 1c bf 64 3e e8 d0 1a bd
       0.07025242 -0.013191318 0.22338527 -0.037796885
000010 0e 52 66 3e c9 cb 09 be d9 3f 7b bd c3 ba 90 bd
       0.22492239 -0.13456644 -0.061340187 -0.07066872
000020 68 fd 10 3e a9 2d cf bd 00 7b e7 3c e8 53 c5 bd
       0.14159167 -0.10116131 0.028256893 -0.096351445
000030 6f 47 ae 3d 30 33 b3 bd 39 d6 60 3e c3 b3 09 3e
       0.085097186 -0.087499976 0.2195672 0.1344748
000040 0f 42 72 bd 97 bb 08 3d ad 3c 1f 3e fb 78 26 3e
       -0.05914503 0.033382025 0.1555049 0.16257088
000050 70 ad ac bd 6f e2 05 be 22 a7 b3 bb d9 fd a6 bd
       -0.08431518 -0.13074659 -0.0054825703 -0.08153886
000060 d7 3b eb bc 39 72 37 3e 7c 91 0d 3e c8 d9 2f 3c
       -0.028715057 0.17914666 0.13825029 0.010733075
000070 e3 4c 30 3e a5 99 a6 3c 43 c0 6b bd 82 48 f2 3c
       0.1721683 0.020336935 -0.057556402 0.02957559
000080 8a b5 db 3c 98 74 ce 3b 2e f0 7d bd 39 72 3c 3e
       0.026819963 0.00630052 -0.06199663 0.18402947
000090 c1 9e 2d 3e 3e 5f ed bd 18 6c 99 3d dd 7c cd 3c
       0.16955091 -0.11590432 0.0749132 0.025083954
0000a0 74 48 91 bd 98 4f c6 3d ef 72 71 3e d6 49 f9 3d
       -0.070938975 0.0968315 0.23579 0.12172286
0000b0 90 ac 18 3e e2 2e c5 3d aa 2e 46 3e 89 33 0f 3e
       0.14909577 0.09628083 0.19353738 0.13984503
0000c0 ac f2 1a bc 9a f7 28 3c a5 3d 43 3d f2 19 2b 3c
       -0.009457272 0.010312939 0.04766621 0.010443198
0000d0 7d b8 52 3e 05 d5 f8 bd 2a 05 3c 3e e4 9f 89 bc
       0.20578189 -0.12150005 0.18361345 -0.016799875
0000e0 9a da 8b bd 8f 16 e7 bc 40 0a 48 3e de 0a 6f 3b
       -0.06828804 -0.028208999 0.1953516 0.0036474983
0000f0 37 1b 09 3e 10 53 d5 3c 19 28 f5 3c 8d 4b 55 3e
       0.13389288 0.026040584 0.029926347 0.20829602
000100 32 d6 fd bc 5d 43 5d 3e d7 a8 c3 bc ca 7d 66 3d
       -0.030985925 0.21607728 -0.02388422 0.056272306
000110 ca ef e3 bd 43 f4 e2 bd da 93 c2 bc 78 74 a5 bd
       -0.111297205 -0.110817455 -0.023752142 -0.08078855
000120 e7 2d 56 3e 67 79 03 3e 6a 1f 61 be 52 6e 64 be
       0.20915948 0.1283928 -0.2198464 -0.22307709
000130 4d 80 40 be 60 ae bb 3c 21 2b 4f be 97 c9 3b bc
       -0.18798943 0.022910297 -0.20231296 -0.011461637
000140 80 74 5f 3e 7a 09 05 be 2f 8c f4 bd 98 b7 d6 bd
       0.21821785 -0.12991896 -0.119408004 -0.104842365
000150 eb 34 ce bc 6e a4 29 3e aa d0 5a 3d 66 26 12 3e
       -0.025171718 0.16566631 0.053421654 0.1427246
000160 28 2a a7 bd 29 ca 3f be fe df 36 be 65 37 13 3e
       -0.081623375 -0.18729462 -0.17858884 0.143766
000170 ab 38 b1 3b c4 41 b4 3c 53 8a 70 be 2d 30 07 be
       0.0054083667 0.022004016 -0.23490267 -0.13201971
000180 76 e4 17 3d cc c7 98 3e 52 79 11 3d 7b 5b 08 3e
       0.03708311 0.29839933 0.03551609 0.13316147
000190 b1 54 89 3e f7 02 8d 3e 5e 90 88 3e cd f0 14 3d
       0.26822427 0.27541324 0.26672643 0.036362458
0001a0 a3 1b cf 3d 0a 66 89 3e bf f3 3c 3e 22 86 ae 3c
       0.10112693 0.26835662 0.18452357 0.021304194
0001b0 81 ee 8f 3d 3a 12 74 3d b2 30 b8 3d ea 8a 5c 3c
       0.07027913 0.059587695 0.08993663 0.013460854
0001c0 04 05 97 3e 73 83 be bc 0a 23 a7 3d 27 b0 3f 3e
       0.29496014 -0.02325604 0.0816098 0.1871954
0001d0 fb 7c a1 3e 50 30 5d 3e 63 0d 85 3e bd 11 8e 3e
       0.31540665 0.21600461 0.25986776 0.27747908
0001e0 1a e6 61 3e 0e f6 ee 3d 23 96 9a 3e 53 ae f8 3d
       0.22060433 0.11668025 0.3019267 0.12142625
0001f0 0d 4e 49 3e ca d7 35 3e 31 1c d3 3d 0f a0 92 3e
       0.1965868 0.17758098 0.103081115 0.2863774

fund_dense.0.weight f4 [16, 4]
000000 e8 a4 d3 3e 58 93 2a be b8 2d e1 3d 48 48 a6 bd
       0.4133675 -0.1665777 0.10995048 -0.08119255
000010 98 dc 20 be 18 d4 83 bd 94 96 65 3e 98 44 bb 3e
       -0.1570915 -0.06436938 0.22420722 0.3657577
000020 c6 ed 83 3e ea c6 8f 3e 40 f1 e1 bd 54 cd b4 3e
       0.25767344 0.28081447 -0.11032343 0.35312903
000030 60 40 47 3d 80 7c 9a bd 6a 61 96 be ca 54 ae 3e
       0.048645377 -0.07543278 -0.29371196 0.34049064
000040 18 ed a2 3d 48 9c 6b 3e 34 ae 1d be f8 4d a6 3d
       0.07955378 0.23008835 -0.15398484 0.0812034
000050 b4 f8 39 3e 92 fe c8 3e 84 81 9b be ee a1 b7 be
       0.18161279 0.39256722 -0.3037225 -0.3586573
000060 0c dd fb 3e 88 5d 89 bd 8e d0 db be e8 23 35 be
       0.49192083 -0.06707293 -0.42932552 -0.17689478
000070 f8 f2 da 3d bc f8 44 be c2 c1 ef 3e a8 9c ae bd
       0.10690874 -0.1923551 0.46827513 -0.085259736
000080 58 21 21 be 08 e7 98 3d 60 00 22 3d 24 49 23 be
       -0.15735376 0.07465941 0.03955114 -0.1594587
000090 4a 76 fa be 00 2a bb bd 78 d8 45 3e 38 88 a4 bd
       -0.48918372 -0.0913887 0.19320858 -0.08033794
0000a0 bc bc 45 3e 50 72 5f be 80 de ae 3b 10 a5 39 3d
       0.19310278 -0.2182095 0.0053365827 0.04532343
0000b0 cc 38 ab 3e bc a7 c8 be d0 ba d5 be 68 49 bf 3e
       0.3344177 -0.3919047 -0.4174409 0.37360692
0000c0 d0 a1 a2 be 2c 4a e8 3e e0 d1 d4 3d 00 d0 eb bc
       -0.31764078 0.4536909 0.10391593 -0.028785706
0000d0 02 8a d0 be 80 63 2e 3d 50 1c c0 3e 60 6e d1 bc
       -0.40730292 0.04257536 0.375216 -0.025565326
0000e0 fc b3 56 3e e8 d5 37 3e b6 1b c4 be 1c 84 de be
       0.20967096 0.17952693 -0.38302392 -0.43460166
0000f0 4a 9a c5 be 40 e9 a7 be 38 d2 4d be 00 d1 b2 be
       -0.38594276 -0.32795143 -0.20099723 -0.3492508

fund_dense.0.bias f4 [16]
000000 54 0a 98 be 69 8c 6c 3f ea c7 8b be f8 cf c2 be
       -0.2969538 0.9240175 -0.2730096 -0.38049293
000010 da ec a6 be 1c 26 de be 4e 44 48 3f 84 68 7d 3f
       -0.32602578 -0.4338845 0.78229225 0.98987603
000020 fc f8 a2 be d0 47 55 be 40 a0 8a bd c7 26 65 3f
       -0.31830585 -0.20828176 -0.067688465 0.89512295
000030 b4 a7 9b be 1e c5 35 3f ec 6e 64 3f b8 58 d0 be
       -0.30401385 0.710039 0.89231753 -0.40692687

combined.weight f4 [1, 48]
000000 67 a1 06 bf d2 27 0e 3f 80 97 f2 be 5c 95 e5 3e
       -0.5259003 0.5552951 -0.4738121 0.44840515
000010 e9 b0 e1 be 76 04 ee 3e e7 08 f4 be 2f 48 f2 3e
       -0.44080284 0.46487778 -0.47663042 0.47320697
000020 c4 11 cd 3e db ed dc 3e 84 15 cc be 1c 4d 0d bf
       0.40052617 0.4315022 -0.39860165 -0.55195785
000030 f9 69 f7 be f9 3d ea 3e 55 f2 08 bf 07 6c ba 3e
       -0.48323038 0.45750406 -0.5349477 0.36410543
000040 92 4e 01 3f d1 d1 f7 be 65 d3 f0 be 30 87 03 3f
       0.50510514 -0.48402265 -0.4703628 0.51378155
000050 d9 9d f7 3e a5 66 d4 3e 8c 20 f4 3e 93 ef 0a 3f
       0.48362616 0.41484562 0.4768108 0.5427181
000060 73 ff 0a 3f 8e 7d 0d bf aa 10 e9 be 67 32 f4 3e
       0.54296035 -0.55269706 -0.45520526 0.47694704
000070 2a bd dd 3e 9a 02 00 3f 67 55 c8 be 52 9c 04 bf
       0.43308383 0.5000397 -0.39127657 -0.51801026
000080 b0 04 56 3d 3f 54 ab 3e 1c 1d 37 3d 68 c2 9f 3d
       0.052250564 0.33462712 0.044705495 0.07800752
000090 9c d7 0a 3e 7c 3a f7 3d cc cf 96 3e 92 9d c9 3e
       0.13558811 0.12071702 0.2945541 0.3937803
0000a0 25 48 e8 bd 64 5e 1f 3d d0 44 73 3d ad 24 08 3f
       -0.113418855 0.038908377 0.059391797 0.5318096
0000b0 80 82 c3 3a c1 23 7e 3e 92 61 db 3e a0 78 bf 3c
       0.0014916211 0.24818327 0.42847878 0.023372948
