models/hybrid_model_ALT.pth (torch, 24937 bytes, 7 tensors)

tech_lstm.weight_ih_l0 f4 [128, 8]
00000000: e9d3 56be 7275 213e f890 d3bd 837e d3bd
00000010: 20f6 7fbd 8548 87bd 0646 b23c ba28 c13d
00000020: 67b6 a6bc 03cd c23d d953 263c 2afd 123e
00000030: 8c1b 0f3d f222 2a3e 53b5 c13d 107f 57be
00000040: e0b3 103e 7b10 0d3d 5e2e 103e f19b 253e
00000050: f8ed a73d 24b8 77bd 975a a1bc a8c5 b9bd
00000060: 67da 8d3d 43ce f43d 1165 c5bd 48ca 663e
00000070: b0c0 f53a a38d 21bd ed2c 163e d618 61bd
00000080: a58d f33d 75f1 303e ff16 1c3e e76e 273d
00000090: 8454 fa3d 114e debd 3d7d e4bc f8d4 99bd
000000a0: 8f5c 1bbd 8f11 79bd 609f 003c 5c1e dfbc
000000b0: b3e7 1abe f5f0 45b8 4c0a c33d 07c4 18be
000000c0: 54fd ae3d 4d04 4ebe b980 5abd 9c8f 863d
000000d0: 8910 c93d 0934 b7bd d680 213c 9419 1fbe
000000e0: f86e 203d 6a93 a1bd 858d bf3d 6e06 10bd
000000f0: 4d65 b4bb 3c8f ca3c 1cf5 4f3e b9ec 323e
00000100: 109c b33d c2a4 cabc 8967 333e ba5d e93d
00000110: 4720 843b f193 193e f050 0b3e 8ecd 173e
00000120: e2f9 4b3e 3b54 873d 6b12 0a3e 0b21 95bd
00000130: 98da 163e 2a9c a93b 2b72 1b3e 1622 a13b
00000140: 10df 633d a3f4 87bc a4d6 b23d 60bd 073e
00000150: 7f2d cabd 77f7 3cbd 7479 7ebc 6c92 34be
00000160: 868c d9bc 90a8 70be 977b 79bc c803 70bd
00000170: 2621 c7b9 e726 7cbd 2098 093e 6f9e 073d
00000180: e70e 49bd 5083 0e3e 7a56 e8bd 56f7 123e
00000190: a577 c4bd 8c36 b03d 8242 213d de4c 233e
000001a0: 1153 38bc db37 87bc 7972 3bbd f186 3d3e
000001b0: c4ab 983c b91a b63d 5c8c bdbd 3a87 edba
000001c0: 9a66 4b3d 0ed8 03be abb5 0a3e 8296 8d3d
000001d0: 14aa 09be 6ff6 36be 9c11 1aba ae83 5ebe
000001e0: a9af fb3d 3ee3 f63d 8666 c03a d191 ccbb
000001f0: 3d56 0337 6a25 013d 85fa f13c 1ab2 143d
00000200: 1bc2 7d3d 86d5 debd f7dc f1bd 3fed 3e3e
00000210: 45a6 603e 5f21 40ba 04b7 6cbd 0d19 a93d
00000220: ed6b e9bd 80b5 e63d 2f17 033d 6ff9 163e
00000230: c7b0 65bd 82a8 d8bc c53d c83d 54b9 62be
00000240: cbae 15bd 4361 0c3e f554 b93d a764 3a3e
00000250: bb23 873c c9ca a73d d160 a5bd 3bb6 d7bd
00000260: 6b06 983a afd9 8b3d f1e0 a83d 812c d4bd
00000270: d118 f13d 7ade 1b3e a7f3 d23d 09bc b4bd
00000280: 9fef 84bd 602a 70bd bee4 2ebd a14d e73d
00000290: c894 103e e7ee 003e 56bc 9dbd 1fe1 25bd
000002a0: 5f32 92bd 8f7a 883d bd40 2c3e 8fd7 f5bc
000002b0: 94c6 28bd 0c0b 393e 822b 96bd 33f7 80bd
000002c0: 24e1 8c3d 8481 e43d 2842 893c c43e d4bc
000002d0: 0c0a 44be ba00 a13d ed89 483e 3407 b03d
000002e0: 4d0d b0bc 636b db3d 7595 9b3d 8ad7 f63d
000002f0: cfb6 f43d 2de4 acbd 075e b3bd a869 d73d
00000300: 93bb 53bd b4ae 9d3d ff85 523d e498 ba3d
00000310: 95a9 97bd ec19 f8bd b360 adbc ca59 eb3d
00000320: 0ab0 8cbd 91de f23d bff7 e83d 91d4 393c
00000330: 7466 dbbd 7e3b cabd 9200 323e 727d 503e
00000340: 73e3 18be de48 9cbd b76a db3d 7237 383e
00000350: b2af f63d 43d9 8e3d b761 403d 4c1d 95bd
00000360: 6e4d f2bd 30f0 093d 48fe 523d 1ef5 983d
00000370: a8ae 663e 5e55 243e 4894 3b3e bfce 423e
00000380: 8dc2 253e 9d52 cd3d e3fb 2e3e fb57 6bbd
00000390: 71cb 9c3c 4afb 603e 37a4 9c3c 510f 52be
000003a0: 6378 5c3d 84ce dbbd c2c3 833d 453a b43d
000003b0: 9daf 4b3d 7445 583e 868c 643d 92b8 823d
000003c0: e5b7 4f3e 0d1b 26bd 7068 b33c 0281 d3bd
000003d0: 76fa 97bd 06df 123d ff88 e6bd f07e 83bd
000003e0: 8692 40bd 1a8a d13d 17ca 773d 6a42 04be
000003f0: 29ce 9f3d 508c 97bd f18c d8bd f822 cc3d
-0.20979275 0.15767458 -0.10330385 -0.103268646 -0.062490582 -0.06605629 0.021761905 0.09431596
-0.020350648 0.09511759 0.010151827 0.14354387 0.03493838 0.16614893 0.09458413 -0.21044564
0.14131117 0.034439545 0.14080188 0.16172768 0.08199686 -0.060478345 -0.019696517 -0.09070903
0.069264226 0.11953404 -0.096384175 0.22538102 0.0018749442 -0.039441716 0.14665575 -0.054955326
0.11892251 0.17279609 0.15243147 0.04087725 0.12223151 -0.10854734 -0.02789175 -0.07511324
-0.037930068 -0.06080776 0.007850498 -0.027236156 -0.15127449 -4.719287e-05 0.09523448 -0.14918528
0.08544412 -0.20118828 -0.053345416 0.0657036 0.09817607 -0.08945472 0.009857377 -0.15537101
0.039168328 -0.07889445 0.093531646 -0.03516238 -0.00550524 0.024726503 0.20308346 0.17473115
0.08770001 -0.024736766 0.17519964 0.1139483 0.004032168 0.14997841 0.13605094 0.14824507
0.19919541 0.066078626 0.13483588 -0.07281693 0.14731824 0.005176087 0.1518027 0.0049173934
0.05563265 -0.016596144 0.08732346 0.13255835 -0.09871959 -0.04613444 -0.015531886 -0.1763398
-0.026556265 -0.23501801 -0.01522722 -0.058597356 -0.00037980935 -0.061560538 0.13436937 0.03311008
-0.049086478 0.13917279 -0.11344619 0.14352164 -0.09593133 0.08604154 0.039370067 0.15947291
-0.011250273 -0.016506126 -0.045763467 0.18508507 0.018636592 0.08891816 -0.09255287 -0.0018121966
0.049658395 -0.12875387 0.13545863 0.06913473 -0.13443786 -0.17867444 -0.0005877258 -0.2172992
0.12289364 0.12055062 0.0014678992 -0.0062429686 7.828287e-06 0.03152982 0.029538402 0.036302663
0.06195269 -0.1088057 -0.11809724 0.1864519 0.21938427 -0.00073291914 -0.057791725 0.08256731
-0.11397538 0.11265087 0.03200453 0.14743589 -0.05607679 -0.026447538 0.097774066 -0.2214101
-0.03654365 0.13708977 0.090494074 0.18202458 0.01649653 0.08192975 -0.08075107 -0.105328046
0.0011598592 0.06828629 0.08246029 -0.10360051 0.117723115 0.15221587 0.10300379 -0.08824927
-0.064910166 -0.058634162 -0.042698614 0.112941034 0.14119256 0.12591134 -0.07701938 -0.040497895
-0.07138514 0.06664001 0.1682157 -0.030010013 -0.041205004 0.1807062 -0.07332517 -0.062971495
0.0687888 0.11157516 0.016755179 -0.025908835 -0.19144458 0.07861467 0.19583865 0.08595124
-0.021490717 0.10713842 0.07596866 0.120528296 0.119489305 -0.084419586 -0.08758169 0.10518199
-0.051692557 0.076993376 0.05139732 0.09111193 -0.07405392 -0.12114319 -0.021164274 0.11491735
-0.06869514 0.118588574 0.11375379 0.011342184 -0.10712901 -0.098746285 0.1738303 0.20360354
-0.14930515 -0.07631086 0.107137136 0.179899 0.1204523 0.06975033 0.046968188 -0.072809786
-0.11831175 0.033676326 0.051512033 0.074686274 0.22527564 0.1604819 0.18318284 0.1902418
0.16187496 0.10025523 0.17088275 -0.05745695 0.019139977 0.21970859 0.019121272 -0.20513655
0.053825747 -0.10732749 0.06433822 0.088001765 0.049728025 0.21120244 0.055798076 0.0638286
0.20284994 -0.04055314 0.021900386 -0.10327341 -0.074208185 0.035857223 -0.11256599 -0.06420696
-0.047014736 0.10231419 0.060495462 -0.1291596 0.07802994 -0.07399809 -0.105737574 0.09967607

tech_lstm.weight_hh_l0 f4 [128, 32]
00000000: ed66 74be 53be 423e ff1e 4ebc b2df 683d
00000010: 1aea 993d e8c6 4a3d 6c64 283e 40e2 473e
00000020: 4d71 8f3d b994 14be 8065 b9bd 0246 c3bd
00000030: 12b1 5fbd 05df 5fba 8beb 1cbe 3a6d 473e
00000040: 37d1 a73d 0058 713d a451 dc3d 1a6a 193d
00000050: d20c 00be 224c 0fbe d282 9a3b 45c4 e1b9
00000060: 3a79 96bc 6750 2ebd e018 f2bd 113b d83c
00000070: 24cd 01be 4296 9ebb 4054 91bc 96cf 6f3d
00000080: 9761 fcbd 8e47 583e 3e89 debd 649c 3c3d
00000090: 297a 83bd f4d2 403e cf74 4a3e 608c 89bd
000000a0: 183d 57bc 75ca 3cbe 5a33 38be b0d7 263d
000000b0: 9079 9c3c dfa6 f6bd 746b 91bd 7efc bebd
000000c0: a8e0 fabc 2947 41be 16a1 a93d 8cdd 3dbe
000000d0: eb38 553e e491 c2bc 79dc 093e c5b3 06bc
000000e0: 8adc 303d b836 123e 19ec 053e ef41 26be
000000f0: e841 0abe f03d 3d3e 7437 cebc ffbf b53d
00000100: d2b1 373c 3115 633e 5635 d33d c2da 72be
00000110: e7ef f6bd 03b4 5cbc 3711 a0bd 602d 7e3d
00000120: 3ff2 ca3d b46c 43bd f67e 973d 77a0 3ebe
00000130: 1887 07bb ce48 0839 48e1 073e 7efe a83d
00000140: c47e 203d 7804 f1bc f650 a63c 272d a3bc
00000150: 153f aa3d 9e67 8ebc b0e8 1d3e dd6f 35bd
00000160: e65d 963d b42f 043e 44ef 36be 5d51 dd3d
00000170: e302 f43b ec4d 3fbd a8ea 81bd a717 63be
00000180: 8bb5 7dbe a8f6 263e 74cb 5fbd 7450 7ebe
00000190: 74d6 dabd fca5 3cbd 4338 f63d 7eda 0c3e
000001a0: 0773 393d c4b3 8c3d ca21 423d a800 293d
000001b0: 3574 4cbd b21d e9bc 63db e8bd f7e0 85bd
000001c0: 0d8d 7bbe 7121 cdb9 221f c23c 56be 2dbe
000001d0: da6f b9bb bee3 49bd 4d18 57bd f04b 463d
000001e0: 62e8 4ebd 3640 563e 9f16 5c3c 0f45 3f3d
000001f0: 60b1 673c 7db9 673e 8100 0bbc 2ad5 08bd
00000200: 8875 0ebe 0332 b53c 635b 053e 2724 20bd
00000210: 2ec9 923c fe86 0ebd 5d39 2d3e 7cb5 bd3c
00000220: 8b36 48be 5eda d03d 35f4 cbbd 0dfa 42be
00000230: ddb0 d23d 78c6 9bbd 00ea 303e f902 f13d
00000240: e753 67be 8b3c 88bc d0eb 223e f1ff 2d3d
00000250: e766 4d3e a592 48be fba5 263e 1769 b23d
00000260: 7365 f73d d659 8b3d a18e 72be 8cd7 37be
00000270: e280 76be 40ae b9bc c56f 1fbe 96f2 b1bd
00000280: 122a d53d 670f 143e e368 e23d 023e 3fbd
00000290: abfb 21be d6ae 38bd 83b6 78bd 60a4 da3b
000002a0: a16f 1dbd 9ae0 273d 6939 b0bd 4973 613d
000002b0: f81d 073e e4ba 12bd fd32 0f3b 09ed 753d
000002c0: f13e ec3d 34be 11be 494f 9d3d 5175 e2bd
000002d0: 976e 2f3e 52d5 053c 774e ce3c 51ae b8bd
000002e0: 4e3b 7abd 8a03 5f3e a6bd 54be d15d 24be
000002f0: 510e 06be 01ef 0f3e cc5b b73c 20cd 9e3d
00000300: 4002 b83d 0e95 743e 54d6 b6bd 9857 fe3c
00000310: b737 c0bd 8b3e 5e3d 1293 79bc be91 0f3e
00000320: 7c22 f9bd 7a2c a3bd 8cd5 e0bd 713b 05be
00000330: 61d5 ebbc a0d1 86bd d852 f4bc 27c1 59bd
00000340: d4f0 a0bd 60ed 31bd 66dd 453e aec0 a73d
00000350: 8a37 c53d c3f3 b5bd 0182 4c3e 0089 4ebe
00000360: 66e0 3f3e c3d8 99bd fc91 5abe 8063 823c
00000370: b25f 6dbd d195 c3bd a19d 57be 122d a63c
00000380: 136f c8bd 4967 24bd 91f9 4f3e df13 6fbe
00000390: ad07 6abe 8160 ddbd cda4 5cbd f0f7 7c3e
000003a0: 4d54 5ebe a09c 8cbc 66e3 87bd d0e2 2abe
000003b0: 9576 6c3e bc03 4a3e 4a52 a73d d84b b23d
000003c0: 6d85 c63c 8882 e4bd aac1 31bd 04d2 39be
000003d0: 4c0f 02be 2719 a13d ded0 f83d 511e 17be
000003e0: b3dc 13be df5d b93c 61a6 38be 5057 a3bd
000003f0: f0c3 e8bd 7d3b 93bc b00e 49be 118d 44bd
-0.23867388 0.19017915 -0.012580632 0.056853957 0.075153545 0.049506098 0.16444558 0.19519901
0.07004032 -0.14509858 -0.09052563 -0.09534837 -0.054612227 -0.00085400074 -0.15324228 0.1947526
0.081942014 0.058921814 0.10757759 0.037454702 -0.1250489 -0.13993886 0.004715302 -0.00043061576
-0.018368352 -0.042557146 -0.11821151 0.026395353 -0.12675911 -0.0048396895 -0.017740369 0.05854758
-0.12323301 0.21121046 -0.108660206 0.046047583 -0.064197846 0.18830472 0.19771121 -0.067162275
-0.0131371245 -0.18436606 -0.17988339 0.04073304 0.019100934 -0.12043547 -0.07100573 -0.09325503
-0.030624703 -0.18874802 0.08282678 -0.18541545 0.20822494 -0.023751207 0.1346301 -0.008221571
0.043179072 0.14278686 0.13078345 -0.16236089 -0.13501704 0.18480659 -0.025172926 0.08874511
0.011211829 0.22176053 0.103129074 -0.23716262 -0.120574765 -0.0134706525 -0.078157835 0.06205499
0.09909486 -0.04771109 0.07397263 -0.186159 -0.0020679887 0.00012997093 0.13269532 0.082516655
0.039183393 -0.029421076 0.020302277 -0.019918991 0.08312813 -0.017383393 0.15420794 -0.044296134
0.073421285 0.12908822 -0.1786471 0.108065344 0.007446633 -0.04670517 -0.06343585 -0.22176991
-0.24776284 0.1630503 -0.054637387 -0.24835378 -0.10685435 -0.046056733 0.1202245 0.13755223
0.045275714 0.06870225 0.047395505 0.04126039 -0.04991551 -0.028456543 -0.1136997 -0.06537049
-0.24565525 -0.00039125563 0.023696486 -0.16967139 -0.0056590857 -0.049289457 -0.05251341 0.048412263
-0.050514586 0.20922932 0.013433128 0.04669672 0.014141411 0.22629352 -0.008484007 -0.033406414
-0.13912022 0.022118574 0.13023143 -0.039096978 0.017918196 -0.034796707 0.16916414 0.023157828
-0.19552056 0.101979 -0.09958688 -0.190407 0.1028764 -0.07606214 0.17276764 0.11768145
-0.225906 -0.016630432 0.15910268 0.042480413 0.20058785 -0.1958719 0.16274254 0.087114505
0.12079897 0.06804244 -0.23687221 -0.17953318 -0.24072602 -0.022666097 -0.1556998 -0.08688848
0.10408415 0.14459 0.11055162 -0.046689995 -0.1581866 -0.04508861 -0.06072093 0.006672427
-0.038436536 0.04098568 -0.086047 0.055041585 0.13195026 -0.035822764 0.002185046 0.060040507
0.115354426 -0.14232713 0.07681138 -0.110575326 0.1713203 0.008168535 0.0251839 -0.09017623
-0.061091714 0.21778694 -0.2077547 -0.16051413 -0.13091399 0.14056017 0.02238264 0.07753968
0.08984804 0.23884985 -0.089275986 0.031047627 -0.09385627 0.054258864 -0.015232818 0.1402044
-0.121647805 -0.079674676 -0.10978231 -0.13010956 -0.02878827 -0.065829515 -0.02982466 -0.05316272
-0.07858434 -0.04343927 0.19322738 0.081910476 0.09629734 -0.088843845 0.19971468 -0.20169449
0.18737945 -0.07512047 -0.21344751 0.015916586 -0.05795259 -0.095500596 -0.21056224 0.020285163
-0.09786811 -0.040137563 0.20310046 -0.23347424 -0.2285449 -0.10809422 -0.053868104 0.24703956
-0.21711846 -0.017164528 -0.0663517 -0.16688085 0.2309211 0.19727987 0.08169992 0.08705872
0.024233544 -0.11157709 -0.043397583 -0.18146521 -0.12701148 0.078661256 0.12149213 -0.14757659
-0.14439659 0.022627769 -0.18032219 -0.07975638 -0.11365497 -0.017972702 -0.19634509 -0.047986094

tech_lstm.bias_ih_l0 f4 [128]
00000000: 319c 5a3e 5728 e63d a92d 403e 2664 6d3d
00000010: 8cef 2abd 8921 d73d 9de5 923d a457 1f3c
00000020: 7952 993c 7391 943d e735 3a3e 984e 243d
00000030: acfe 723e 610c 02be 6721 8f3c ab2d 593e
00000040: 1eff d43d daca 2f3d 2523 693e 7407 233e
00000050: 3eac 2b3e 2aa7 ab3d 219d 55bc bc82 c2bd
00000060: 8190 09be 42ea 453e 98ac 6a3e e889 6b3e
00000070: 6cd9 473d 5dc9 5e3d 900f c1bd 4c8c 5b3c
00000080: b5b1 1fbc 3515 91bd 8d76 593e f22b 033d
00000090: 3174 5ebd 87d5 1c3e 0f62 fa3d 3237 783b
000000a0: 5c29 893d c61a 38bc 6e2b bf3d 13e4 263e
000000b0: e6ea 6c3e 4a6e fb3d 758b a33d 4933 3d3d
000000c0: 4331 243e d4dc 4f3e f8ac 91bd 3362 84bb
000000d0: e4d4 d33d c5bf 2cbe cb78 1f3e 6d9f 063e
000000e0: 2602 ffbc 579a 8bbc c478 de3c 7942 44bb
000000f0: c60b 01be da65 97bd 462e 083e f766 02be
00000100: b17a 9abd 375a ac3d b9d3 b33d 490d 6cbe
00000110: 00b4 02be 6b0c 8dbd d240 1e3d 1329 623e
00000120: 15e7 fcbd 603e 8fbd ff01 2a3c 3190 483d
00000130: a24a b0bd 4fe8 073e 1cd1 193d 50c2 6c3e
00000140: a870 c0bd f837 4cbe bb22 ee3d 9637 71be
00000150: 34f9 8fbd 5f3c 4dbd 37ab 363e ba5f fcbd
00000160: f8d5 dfbd 345d 623c 5560 183d 0573 8d3d
00000170: 2c14 c0bc a40e 653e 15b6 43bd 33fc 3bbd
00000180: 1824 763e bcf5 41bd 2299 2a3e 9aa3 bc3d
00000190: 6b21 ccbb ace8 103d a2ee 963d e283 a43d
000001a0: 5203 263d 13dc 59bc f6b3 94bd 60bc 143e
000001b0: 1872 423e 62ea c1bd 5a73 2f3e 1394 6b3e
000001c0: 8594 483e ed37 663d 16a7 5f3d 0fb9 f93d
000001d0: 0949 7dbc 385d c63c ad09 b6bd 8aba c13d
000001e0: 845f dd3d 07f5 3a3e 3005 e9bb 7a15 503e
000001f0: 7340 353e a987 a73c 53f5 903b fe68 753d
0.21348645 0.11238163 0.18767418 0.057956837 -0.041732356 0.10504443 0.071727015 0.009725485
0.018716084 0.07254305 0.18184625 0.040114015 0.23729962 -0.12700035 0.017471982 0.21208827
0.10400222 0.042918064 0.22767313 0.15920812 0.16764924 0.083814934 -0.013037951 -0.09497592
-0.1343403 0.19327644 0.22917402 0.23001826 0.048791334 0.054391254 -0.094267964 0.013400149
-0.0097469585 -0.07084123 0.2123663 0.03202433 -0.054310028 0.15315829 0.122257344 0.0037874696
0.06697342 -0.011236852 0.093344554 0.16297941 0.23136482 0.12276895 0.07985584 0.046191487
0.16034417 0.20299083 -0.07113069 -0.0040400266 0.1034334 -0.1687003 0.15573423 0.13146754
-0.031128954 -0.017041368 0.027157195 -0.0029946847 -0.12602147 -0.073924735 0.13298902 -0.1273459
-0.07542933 0.084156446 0.08780617 -0.23051943 -0.12763977 -0.06887134 0.038636036 0.22085981
-0.12348763 -0.06994319 0.0103764525 0.048965637 -0.08607985 0.13272212 0.037552938 0.23121
-0.093964875 -0.19943225 0.11627718 -0.2355636 -0.070299536 -0.050106402 0.17838751 -0.12322946
-0.10929483 0.013816167 0.037201244 0.06906704 -0.023447119 0.22368866 -0.04778107 -0.045894813
0.24037206 -0.04735349 0.16659978 0.09210892 -0.0062295697 0.035378143 0.07369734 0.08032967
0.04053051 -0.013297099 -0.07260887 0.14524984 0.18988836 -0.09468533 0.17133847 0.23005705
0.19587906 0.05620568 0.054602705 0.121935 -0.0154593075 0.024214372 -0.08888564 0.09459408
0.10809234 0.18257533 -0.007111214 0.20320693 0.17700367 0.02045043 0.004423776 0.05991458

tech_lstm.bias_hh_l0 f4 [128]
00000000: 74b2 5cbd d4b8 b63c cdec 013e 834a 67bd
00000010: cff7 453e 354a 04be 1526 553d bad3 1a3e
00000020: fe2c d73c 257c 923c 1cab c63d bdb6 95ba
00000030: e949 e7bc 4f3c f53d 88d2 99bd 01eb b83d
00000040: fd43 463e fc4b 91bd 8f9e ad3d b367 323e
00000050: df86 a83d ce87 023d 5131 7b3d 0b28 c13d
00000060: 7b55 e7bd 1f08 3c3d 10cf 1c3d 2171 153e
00000070: f098 293e 542d 8e3c fde4 4b3d 9036 7e3c
00000080: dc62 92bd db29 c03d 2a35 813d 6d9f 023d
00000090: f185 85bd be6a 07be 736a e93d 3ecf 5b3e
000000a0: 1eb6 a9bd aa7f 303e 2f06 203e 422c 413e
000000b0: 16ca 7ebd 8a93 50bd 4399 fb3d 1bc6 dc3d
000000c0: 266b 483e f6b9 1e3e 3de6 603e 1648 d53d
000000d0: 373c 6f3d e696 0f3e 4319 a4bd 14b5 ea3c
000000e0: 47d1 d33d ac01 a23d 93cd 0c3e c3c4 c93d
000000f0: dbb1 fb3d 6601 733e 5563 023e f58b 00be
00000100: d8c8 58be 68fc 663d a43e 713e 9530 c0bb
00000110: 40d8 dc3d 5cc1 593d 892c 213e df15 0cbd
00000120: 7a85 da39 5e0e 9dbd 8db3 1ebe 6ff0 833c
00000130: 74f5 f9bc e665 033e 9442 06be 7c0f 743e
00000140: 55f3 6fbe ea3a 5dbe f0ff abbd 34ed ffbd
00000150: 2698 463d 2a52 af3d 9f9b 113e f22a 20be
00000160: 2617 eebd b4de babb 424e 4dbe 67a2 20be
00000170: a2dd 313d bef3 303e 53e0 edbd 6687 0dbd
00000180: 25dc 00bc a4d9 7d3d 1b93 003e d72b 6cbb
00000190: 0e41 423d df40 1d3e 34fc 87bd fc2f a6bc
000001a0: 43e2 b63d d63f 2cbc 27fb 0b3e c825 8a3c
000001b0: 0319 8a3e 0b23 68bd f742 b3bd e2ff 063e
000001c0: 217e 2a3e 38d3 be3d 6cb9 e63d 985f b63d
000001d0: 5f48 d03d 6296 293c c0ac 773d 60a2 8e3d
000001e0: 2443 52bc ccee 6f3e dcb9 c73d b1bc 713e
000001f0: 175f 263e 8ca9 4bbd 2991 30bd 1049 4a3e
-0.053881124 0.02230493 0.12687989 -0.056467544 0.19332813 -0.12918933 0.05203827 0.1511983
0.026266571 0.017881462 0.09700605 -0.0011422258 -0.028233485 0.119743936 -0.07510859 0.090291984
0.19361873 -0.07094571 0.08477508 0.1742237 0.082288496 0.031867795 0.06132633 0.09431466
-0.11295601 0.045906182 0.038283408 0.14593937 0.16562247 0.017355599 0.049778927 0.015515938
-0.07147762 0.09382983 0.06308968 0.03189032 -0.06519688 -0.13224313 0.11397257 0.21465775
-0.08286689 0.172362 0.15627359 0.1886454 -0.062204443 -0.050921954 0.12285092 0.10779973
0.19572124 0.15500626 0.21962829 0.1041414 0.058407035 0.14022407 -0.08012631 0.028650798
0.10342651 0.07910475 0.13750295 0.098519824 0.122897826 0.23731002 0.12733205 -0.1255339
-0.21170366 0.056393057 0.23559052 -0.0058651664 0.10783434 0.053162917 0.15739645 -0.034200545
0.00041679648 -0.07668756 -0.1549818 0.016105859 -0.030512549 0.1283184 -0.13111335 0.23834032
-0.23432668 -0.21604505 -0.083984256 -0.12496415 0.048484944 0.085605934 0.14219521 -0.15641382
-0.11625509 -0.005702818 -0.20049384 -0.15686952 0.043424256 0.1728048 -0.11615052 -0.034552954
-0.007864987 0.061975136 0.12556116 -0.0036036873 0.047425322 0.15356778 -0.06639901 -0.020286553
0.08929875 -0.010513267 0.13670026 0.016863719 0.26972207 -0.056674045 -0.08753007 0.13183549
0.16649677 0.093176305 0.11265835 0.08904952 0.10170054 0.010350795 0.06046748 0.06964564
-0.01283339 0.23430938 0.09752247 0.23607136 0.16247211 -0.04972224 -0.043107186 0.19754434

fund_dense.0.weight f4 [16, 4]
00000000: e8fb f1bd 88b1 8abd 00d9 ef3d a67a ef3e
00000010: 0026 8c3e b49d c5be e05e 0abe 9055 18be
00000020: 9a0e ca3e d8e4 4fbe d25d bebe fab0 f9be
00000030: c043 1dbc 5018 4d3e ae39 e5be 083a e3be
00000040: 90dc b53e c600 d3be 8662 ce3e 6012 f4bc
00000050: 94c3 bd3e 7c89 b73e b2c9 edbe f813 8c3e
00000060: a82a 8bbe e691 e8be 3eae ecbe e0ae ed3d
00000070: 461d cf3e 7e10 b43e 3c7d a93e c0f7 713c
00000080: 069b a53e 2623 d3be 70b1 57bd 941b 60be
00000090: 4c68 e63e 084e a6bd a6d4 dcbe 4065 4ebc
000000a0: 609b 883d 1293 de3e 8c6c 55be d836 58be
000000b0: f018 df3d 1e38 e03e 04a7 7ebe a095 afbc
000000c0: 3a01 a8be aa01 a8be c070 b43c a037 e23d
000000d0: f4d1 873e 58b2 993e 382c bbbd 80ce 4dbd
000000e0: 0081 91bd 9eb5 a33e 7492 6bbe d8ae 9f3e
000000f0: c057 7b3d 68fb d73e 7609 a9be 1892 f4be
-0.118156254 -0.06772143 0.11711311 0.4677326 0.27372742 -0.3859688 -0.13512754 -0.1487639
0.39464265 -0.2030214 -0.37180954 -0.48767835 -0.009598672 0.20028806 -0.4477057 -0.44380212
0.35519838 -0.41211528 0.40309542 -0.029793918 0.37063277 0.3584708 -0.46442944 0.27358985
-0.27180982 -0.45423812 -0.46226686 0.116056204 0.4045202 0.35168833 0.3310336 0.014768541
0.32344836 -0.41237754 -0.052659452 -0.2188552 0.45001447 -0.08120352 -0.43130988 -0.012597382
0.066702604 0.4347158 -0.20842189 -0.21114671 0.10893428 0.43792814 -0.24868399 -0.021433651
-0.32813436 -0.3281377 0.02202642 0.11045766 0.2652737 0.30018878 -0.091392934 -0.050245762
-0.07104683 0.319745 -0.23005086 0.31188083 0.06136298 0.42183995 -0.3301503 -0.4776771

fund_dense.0.bias f4 [16]
00000000: 60b7 dbbe c2f3 a8be 362b 473e 486b 75be
00000010: dc48 44be 4d5c b13e 5580 bd3e 080a 1abe
00000020: 9b7b cb3e a885 f03e a417 bfbe 788c 8cbe
00000030: 9635 ffbe 9ba4 ba3e 7e3e d13e 7c86 2cbe
-0.42913342 -0.32998472 0.19450077 -0.23966706 -0.19168419 0.34640732 0.37011972 -0.15042889
0.3974274 0.46976972 -0.37322724 -0.2745092 -0.4984557 0.3645371 0.4086799 -0.16848177

combined.weight f4 [1, 48]
00000000: 832c 88be 4be0 8e3e 60ee fe3d 64bd 6cbe
00000010: aaac 9dbe 0d5c 653e 1906 0e3e d033 6c3e
00000020: 13d1 92be d308 73be da6c 53be 3302 07be
00000030: d492 1a3e 31c5 063e ab8a 95be 7d06 653e
00000040: 925f 8bbe 0754 7abe 2096 643e dfc2 27be
00000050: 162f 693e c1f3 7abe c6f3 503e fd85 83be
00000060: 3450 823e f94d 833e 5a8a 97be bc9b 7fbe
00000070: dea4 84be 1cf8 5b3e 724c 19be 8272 93be
00000080: 5ca3 c4bd a49f 6a3d 1386 ba3c 2495 c1bd
00000090: b004 053c 2a91 e83c b4f6 6c3e 6c6d 263d
000000a0: 8a4e 023e 69ba 5b3e df1a 89bd 5e83 8dbd
000000b0: e1bb d1bd 8021 2d3d 6ab3 413e 60da bdbd
-0.2659646 0.27905497 0.1244781 -0.23119122 -0.30795795 0.22398396 0.13869514 0.2306664
-0.28675136 -0.23733835 -0.20646992 -0.13184433 0.15095073 0.1316116 -0.29207358 0.22365756
-0.27221352 -0.24446116 0.22322893 -0.16382931 0.22771868 -0.24507047 0.20405492 -0.25688162
0.25451815 0.25645426 -0.2959774 -0.24961752 -0.25907034 0.21481365 -0.14970568 -0.287983
-0.09601471 0.05728115 0.02276901 -0.094522744 0.008118793 0.028389532 0.23140985 0.040631697
0.12725273 0.21457829 -0.066945784 -0.06909822 -0.10240913 0.042268276 0.18916097 -0.09270167
